model=mlp_lr=0.1_seed=1_hidden_num=256/best_network.pth (torch, 11137 bytes, 6 tensors)

hidden.weight f4 [256, 2]
-0.23844528 0.3061536 0.25113317 0.06508746 -0.46905 0.36558074 0.3177354 -0.6424353
0.24755575 0.13363147 0.15794463 -0.53875947 -0.5189326 -0.498906 -0.15613629 0.20234871
-0.1852311 -0.48230618 0.5724631 -0.34722075 0.3072468 0.687914 -0.67036635 -0.5336731
-0.3590484 -0.3281432 0.5544085 0.5974484 -0.42428026 -0.010899427 0.39792937 0.0033167882
0.07090592 0.37648296 0.6512416 0.27044165 0.008818469 -0.5659649 0.57767135 -0.544111
0.6444039 0.48432267 -0.17547612 -0.54472256 -0.024527274 0.6860519 -0.4479453 -0.4970646
0.4309977 -0.6623158 0.410793 -0.46951133 -0.36576736 0.072889015 -0.15591991 -0.16177908
0.6516581 0.68963224 -0.6004543 -0.055028357 -0.48120186 0.6656322 -0.1439196 0.19785467
-0.48467973 -0.5293937 0.12911315 -0.61318624 0.17438208 -0.11647517 -0.10928964 -0.6248838
-0.52690035 -0.21131325 0.68192995 0.44301564 -0.32607996 0.30431473 -0.006782271 -0.1489387
-0.16077943 0.3468845 0.15909229 0.21964273 0.4628877 -0.034341253 -0.3622734 -0.2618008
0.21851489 0.7015138 0.3482277 -0.18010199 -0.53861463 -0.54052246 -0.2615227 -0.5678983
-0.5129492 -0.051915474 0.049392734 0.22317792 -0.53326267 -0.09314335 0.20903884 0.36803943
0.4905609 -0.4626274 0.4759653 0.27772287 0.5199252 -0.66037863 -0.6493164 -0.3922066
-0.28218603 -0.2144596 -0.061032176 -0.5673307 -0.5865274 -0.33758023 0.35444698 -0.6980983
-0.23178819 0.516522 -0.2751107 -0.11395184 0.21856605 -0.36739206 -0.6658479 -0.119123854
0.35245395 -0.16774598 -0.14397506 0.21522422 0.18175845 -0.121845275 -0.49854916 0.48665363
-0.65977585 0.64383775 -0.4833618 -0.33167267 -0.5698868 -0.5344072 0.4304004 -0.09563693
-0.24480896 0.4263405 -0.0102198515 0.2078186 -0.14848165 -0.2871657 -0.6280799 -0.50807816
-0.28861907 -0.6460205 -0.36300203 -0.41519922 0.20007117 -0.037072368 -0.14562023 -0.11033109
0.21253838 -0.48702344 -0.15582667 0.52411 0.21039554 0.26639622 -0.6499932 0.49383503
0.07437696 0.20792507 0.5144992 -0.66293055 0.27824304 0.2804479 0.45854422 0.58080685
0.02393865 -0.14953786 0.3044013 -0.14790955 -0.3233909 -0.35153455 0.13672791 0.010585602
0.17371118 0.13312663 -0.64589435 0.581625 0.25843754 0.32929966 -0.24913786 0.068075
0.59824425 0.25765827 -0.15289764 -0.3883859 0.6496068 -0.17195846 -0.6877761 0.6940987
0.02343508 -0.34385717 0.006969487 -0.16094516 -0.6233832 -0.47899714 0.0042499197 -0.087205455
-0.46390185 -0.4215166 -0.32791772 0.06010073 0.09401714 -0.65323484 -0.64454156 0.036307067
0.35844293 0.0063436907 0.29562414 -0.0046023517 -0.3303619 0.18995373 0.08464318 0.3659931
0.4336827 -0.67564505 -0.5483003 0.070072256 0.0659991 0.68500733 0.5712196 -0.38764083
0.66496664 -0.26182505 -0.6913906 -0.6575805 0.677234 -0.5543021 -0.38845342 -0.20274791
-0.1267043 -0.47670057 -0.08650076 0.60885394 0.24683091 -0.59086275 -0.15531518 -0.26385108
0.48935398 0.5715154 -0.17352144 0.39809695 0.24824688 0.6456463 0.5408528 -0.42642957
00000000: 002b 74be 2ac0 9c3e 8794 803e 934c 853d
00000010: 5227 f0be 662d bb3e 37ae a23e a476 24bf
00000020: 417f 7d3e b0d6 083e 3dbc 213e 24ec 09bf
00000030: c4d8 04bf 9b70 ffbe 31e2 1fbe 8034 4f3e
00000040: 39ad 3dbe d6f0 f6be f18c 123f ebc6 b1be
00000050: 744f 9d3e 221b 303f 219d 2bbf cd9e 08bf
00000060: 31d5 b7be 6302 a8be b7ed 0d3f 61f2 183f
00000070: 433b d9be 8393 32bc 66bd cb3e 795e 593b
00000080: 1f37 913d 60c2 c03e c5b7 263f 5477 8a3e
00000090: 577b 103c 13e3 10bf 45e2 133f dc4a 0bbf
000000a0: a7f7 243f 24f9 f73e 03b0 33be f072 0bbf
000000b0: 6ced c8bc 19a1 2f3f 1659 e5be 407f febe
000000c0: bbab dc3e 878d 29bf 7653 d23e ca63 f0be
000000d0: dc45 bbbe d646 953d 78a9 1fbe 6aa9 25be
000000e0: 11d3 263f bd8b 303f 5fb7 19bf 6a65 61bd
000000f0: 1760 f6be df66 2a3f a95f 13be 6a9a 4a3e
00000100: f127 f8be 5886 07bf 3d36 043e c6f9 1cbf
00000110: 3791 323e 898a eebd 3fd3 dfbd 62f8 1fbf
00000120: f1e2 06bf 8062 58be f692 2e3f f2d2 e23e
00000130: f4f3 a6be 24cf 9b3e d03d debb 6383 18be
00000140: 5da3 24be d89a b13e 17e9 223e 06ea 603e
00000150: 9eff ec3e 6aa9 0cbd e67b b9be c10a 86be
00000160: 5ec2 5f3e 6996 333f e74a b23e a86c 38be
00000170: a6e2 09bf ae5f 0abf 4ee6 85be c861 11bf
00000180: a450 03bf 52a5 54bd 0950 4a3d c188 643e
00000190: e783 08bf f1c1 bebd 470e 563e aa6f bc3e
000001a0: cc2a fb3e 80dd ecbe b9b1 f33e b131 8e3e
000001b0: d119 053f 930e 29bf 9939 26bf 4ecf c8be
000001c0: b07a 90be 4c9b 5bbe e0fc 79bd 963c 11bf
000001d0: a926 16bf 51d7 acbe 137a b53e 92b6 32bf
000001e0: e259 6dbe c93a 043f 4fdb 8cbe 955f e9bd
000001f0: c7cf 5f3e d01a bcbe 0275 2abf 35f7 f3bd
00000200: d874 b43e 9ac5 2bbe 336e 13be bd63 5c3e
00000210: e31e 3a3e 048a f9bd d641 ffbe aa2a f93e
00000220: 12e7 28bf 8dd2 243f 337b f7be 00d1 a9be
00000230: 1ae4 11bf e9ce 08bf 715d dc3e 4bdd c3bd
00000240: 33af 7abe 4d49 da3e 2a71 27bc 66ce 543e
00000250: 930b 18be 6207 93be d8c9 20bf 6911 02bf
00000260: e1c5 93be 9961 25bf 67db b9be fe94 d4be
00000270: 75df 4c3e 32d9 17bd 781d 15be 44f5 e1bd
00000280: a9a3 593e 235b f9be 0791 1fbe 132c 063f
00000290: ee71 573e 1665 883e f465 26bf f2d7 fc3e
000002a0: f352 983d 4fea 543e 38b6 033f d1b5 29bf
000002b0: df75 8e3e de96 8f3e 4fc6 ea3e c2af 143f
000002c0: fd1a c43c 7420 19be 7dda 9b3e 9a75 17be
000002d0: 7e93 a5be 56fc b3be 6702 0c3e 3c6f 2d3c
000002e0: 58e1 313e 5952 083e 5559 25bf 60e5 143f
000002f0: ed51 843e f799 a83e ff1d 7fbe e86a 8b3d
00000300: 8926 193f c9eb 833e 3391 1cbe 84da c6be
00000310: a24c 263f e115 30be 1812 30bf 74b0 313f
00000320: edfa bf3c 0c0e b0be 4b60 e43b cfce 24be
00000330: 0b96 1fbf 1d3f f5be e942 8b3b c698 b2bd
00000340: 8b84 edbe 06d1 d7be d5e4 a7be 2f2c 763d
00000350: 0f8c c03d 663a 27bf ad00 25bf b8b6 143d
00000360: d585 b73e bcde cf3b 0c5c 973e 53cf 96bb
00000370: 3225 a9be 3b83 423e 6759 ad3d 7363 bb3e
00000380: a90b de3e 13f7 2cbf 695d 0cbf 0b82 8f3d
00000390: 892a 873d a45c 2f3f 733b 123f dc78 c6be
000003a0: 413b 2a3f ef0d 86be f9fe 30bf 3257 28bf
000003b0: 355f 2d3f bee6 0dbf 5ee3 c6be 269d 4fbe
000003c0: c6be 01be 1912 f4be 4f27 b1bd dadd 1b3f
000003d0: 3ec1 7c3e c842 17bf f10a 1fbe 7d17 87be
000003e0: 9b8c fa3e d54e 123f 9baf 31be 5dd3 cb3e
000003f0: 6e34 7e3e 1349 253f 5475 0a3f fa54 dabe

hidden.bias f4 [256]
-0.18307815 -0.37092152 -0.13679822 -0.0067529366 -0.038079847 -0.5520637 -0.013763728 -0.0338585
0.1836377 -0.20092465 -0.7001018 -0.18695271 0.25558987 -0.24256134 -0.056524064 0.5805426
-0.38711038 -0.23283654 -0.67438614 0.60297984 0.7009394 0.038336266 -0.56631994 0.20174322
-0.6495464 -0.6396955 -0.4367842 0.25539312 0.061570223 -0.42544353 -0.60518223 -0.49712494
0.35920948 0.08496501 -0.2870186 0.541783 0.47454965 -0.45216578 -0.019326353 -0.5813682
0.520164 0.39170867 -0.54122704 0.15467691 -0.39159808 0.6899305 -0.07844371 0.6479825
0.16550864 0.05413552 -0.34105617 0.6659105 -0.055369917 0.67847323 0.5140329 -0.60032177
0.29636434 0.5670864 0.27287555 0.19730389 -0.16896832 0.03492389 0.68161726 0.1974696
-0.17996839 0.3145614 0.38751674 0.56232065 -0.495762 -0.38065448 -0.48953176 -0.16869192
-0.6132331 -0.5991202 -0.32318026 0.63848895 0.25527966 -0.56913686 0.20141624 -0.4972946
-0.13872416 -0.020003147 0.62799126 -0.45203978 0.21087745 -0.05768774 0.3318621 0.59600383
0.30498227 -0.30606955 -0.2847044 0.5713389 0.49429435 0.6282308 0.46948713 -0.26870772
-0.1735448 -0.056994423 0.060995422 -0.48244274 0.5749672 -0.68543327 -0.39677995 -0.2848112
-0.5898168 0.47356805 -0.00906663 0.26387239 -0.22720978 0.03257884 -0.22001009 -0.30928108
0.41478676 -0.31479403 0.39434975 0.6462291 0.34770846 -0.025523541 -0.4118101 -0.06320451
-0.66975075 -0.042898916 -0.20049314 -0.13532114 -0.39403257 -0.05405687 -0.15347733 0.46645704
-0.3026469 0.588142 -0.39516017 0.36769718 0.5325203 0.09733612 -0.5166348 -0.40441012
-0.39827222 0.50708795 0.44742554 -0.6917569 0.23601805 -0.28710794 -0.18064636 0.6469016
0.59898406 0.14856663 -0.022710323 -0.28448987 0.07308314 -0.025091536 -0.25489166 -0.5000039
-0.57926124 0.4873745 0.70228237 -0.07356033 0.38164392 -0.42986017 0.3459688 -0.36654902
-0.07807013 0.24433826 -0.077148624 0.20668654 -0.24499913 0.6407136 -0.35762048 0.24672663
0.10553276 -0.015683854 0.07752205 -0.4694572 -0.38789886 -0.41256943 0.53219396 0.37363383
-0.3509119 -0.07849808 0.28658745 0.3185908 0.4978716 0.1832266 0.66572446 0.6795761
0.0696357 0.009928364 -0.2852078 -0.33090088 0.1777931 0.6205321 -0.27498433 -0.561533
0.13820921 0.58391243 -0.19936664 -0.52317625 0.62171245 -0.6650958 -0.26101205 -0.59230924
0.39396605 0.23274812 -0.16149989 0.6577644 0.26659787 0.069228135 0.47773662 -0.26216874
0.10723035 -0.07509321 -0.5413703 -0.3895939 -0.33433375 0.33371243 0.66280824 -0.43921298
0.45819625 0.47467533 -0.33992824 -0.41129667 0.51198095 -0.3880227 -0.04396363 -0.026129443
-0.57962775 -0.14661051 -0.07802014 -0.43646222 0.56848747 0.33678558 -0.37066954 0.2324831
0.54518354 -0.68644834 -0.5692693 -0.62891704 0.27335307 0.54777026 0.16924311 -0.5498792
-0.36464888 -0.695081 0.40617776 0.6814049 0.6109176 0.5025109 -0.58189404 0.25156003
0.32370633 -0.3875985 0.24890909 0.122436255 -0.15747428 -0.18812203 0.64608544 0.6085555
00000000: d778 3bbe 6de9 bdbe d514 0cbe bd47 ddbb
00000010: 9df9 1bbd 0c54 0dbf 4281 61bc 36af 0abd
00000020: 850b 3c3e 31bf 4dbe df39 33bf 8870 3fbe
00000030: addc 823e 0062 78be c785 67bd 719e 143f
00000040: 5533 c6be b46c 6ebe 92a4 2cbf e35c 1a3f
00000050: c470 333f 7d06 1d3d 58fa 10bf c695 4e3e
00000060: ac48 26bf 16c3 23bf 2ea2 dfbe e3c2 823e
00000070: 0f31 7c3d bcd3 d9be 39ed 1abf 2987 febe
00000080: 4eea b73e 2302 ae3d 1af4 92be 4ab2 0a3f
00000090: 2cf8 f23e 4682 e7be 4d52 9ebc 8cd4 14bf
000000a0: 7829 053f 0a8e c83e db8d 0abf a063 1e3e
000000b0: 8b7f c8be 499f 303f 19a7 a0bd 2ee2 253f
000000c0: 197b 293e 35bd 5d3d ea9e aebe 1c79 2a3f
000000d0: 91cb 62bd 6cb0 2d3f a997 033f b0ae 19bf
000000e0: 11bd 973e 932c 113f 58b6 8b3e 080a 4a3e
000000f0: 0806 2dbe 5a0c 0f3d 787e 2e3f 7935 4a3e
00000100: a249 38be 310e a13e 9868 c63e 3ff4 0f3f
00000110: 84d4 fdbe 25e5 c2be e8a3 fabe 93bd 2cbe
00000120: d8fc 1cbf f15f 19bf e277 a5be 0374 233f
00000130: 04b4 823e f4b2 11bf 0f40 4e3e 669d febe
00000140: b50d 0ebe a4dd a3bc 09c4 203f c271 e7be
00000150: 42f0 573e fb49 6cbd d4e9 a93e b593 183f
00000160: a326 9c3e 26b5 9cbe c6c4 91be 4443 123f
00000170: 2614 fd3e bcd3 203f 9e60 f03e 0f94 89be
00000180: bab5 31be fc72 69bd 56d6 793d bc02 f7be
00000190: 0d31 133f 8e78 2fbf be26 cbbe c6d2 91be
000001a0: 3cfe 16bf 8377 f23e 348c 14bc 481a 873e
000001b0: aea9 68be 6471 053d 534a 61be 175a 9ebe
000001c0: ee5e d43e af2c a1be 36e8 c93e 456f 253f
000001d0: d806 b23e bf16 d1bc c6d8 d2be 5e71 81bd
000001e0: c974 2bbf c6b6 2fbd 134e 4dbe a091 0abe
000001f0: a3be c9be bd6a 5dbd 2929 1dbe 75d3 ee3e
00000200: 89f4 9abe 7990 163f 6f52 cabe ce42 bc3e
00000210: 4053 083f 2958 c73d 2e42 04bf d80e cfbe
00000220: 56ea cbbe 84d0 013f f614 e53e fb16 31bf
00000230: b7ae 713e d0ff 92be 5cfb 38be 589b 253f
00000240: 0557 193f da21 183e 000b babc a8a8 91be
00000250: 9dac 953d c48c cdbc 2981 82be 4100 00bf
00000260: 774a 14bf 2789 f93e c7c8 333f cca6 96bd
00000270: d566 c33e a216 dcbe d322 b13e 50ac bbbe
00000280: 3be3 9fbd cf33 7a3e 1900 9ebd a3a5 533e
00000290: 0de1 7abe ce05 243f 081a b7be e8a5 7c3e
000002a0: 8f21 d83d 6d7b 80bc e1c3 9e3d b25c f0be
000002b0: ae9a c6be 4d3c d3be dd3d 083f ef4c bf3e
000002c0: b9aa b3be 9ac3 a0bd 97bb 923e 551e a33e
000002d0: 07e9 fe3e c19f 3b3e eb6c 2a3f b3f8 2d3f
000002e0: 299d 8e3d 94aa 223c c206 92be d76b a9be
000002f0: 650f 363e 31db 1e3f bfca 8cbe a0c0 0fbf
00000300: b786 0d3e 497b 153f c526 4cbe e1ee 05bf
00000310: 8c28 1f3f b843 2abf 5fa3 85be 94a1 17bf
00000320: ebb5 c93e 8655 6e3e 3a60 25be 3f63 283f
00000330: 847f 883e 7bc7 8d3d e599 f43e fb3a 86be
00000340: 969b db3d 78ca 99bd 3e97 0abf da78 c7be
00000350: cb2d abbe 5bdc aa3e cdad 293f 86e0 e0be
00000360: b398 ea3e a508 f33e 130b aebe 7a95 d2be
00000370: 2f11 033f e9aa c6be 3513 34bd 6a0d d6bc
00000380: 7c62 14bf 1121 16be 06c9 9fbd fa77 dfbe
00000390: 6588 113f 296f ac3e 66c8 bdbe 0d10 6e3e
000003a0: 2691 0b3f 14bb 2fbf a2bb 11bf b500 21bf
000003b0: eff4 8b3e ac3a 0c3f 114e 2d3e e2c4 0cbf
000003c0: 42b3 babe d4f0 31bf 88f6 cf3e 8d70 2e3f
000003d0: 1965 1c3f 8ea4 003f 02f7 14bf 7acc 803e
000003e0: d6bc a53e 5073 c6be 06e2 7e3e dcbf fa3d
000003f0: f040 21be 10a3 40be db65 253f 4bca 1b3f

output.weight f4 [1, 256]
0.041367777 0.02117081 -0.057941996 0.04384382 -0.020125702 0.04579796 -0.013344236 0.046323
-0.02856969 0.009651244 -0.017317422 0.022736505 -0.040326193 -0.01721058 -0.041720018 0.02646079
-0.049669065 -0.006787598 0.0063689053 -0.042980008 0.026578471 -0.030607507 -0.028810114 -0.03377693
0.03314127 0.004516721 -0.0014552921 0.040731534 -0.031685784 0.032313697 0.01666271 -0.013819613
0.03972353 -0.007088594 0.038417913 -0.051702425 -0.0051144436 -0.041505747 0.009935282 0.016212046
-0.027863726 0.033430338 0.011269137 0.05720693 0.044692934 0.0060694665 0.04964053 0.024168782
0.0285047 -0.03858334 0.050522983 -0.027527988 0.04578781 0.045169488 0.03823229 0.052862175
0.038255915 0.05998697 0.02748704 0.03145662 -0.058751307 0.046773933 -0.017636992 -0.034527518
-0.023663864 0.010211691 -0.011825874 0.021995366 0.05818259 -0.021344878 0.045960672 -0.017266393
-0.008259475 0.052753426 -0.061207384 0.034369133 -0.0110724345 0.0119102 -0.017309181 -0.013195597
-0.000106453896 -0.011710957 0.008496307 0.029260717 -0.028844059 0.015660115 0.04428833 0.021444127
-0.03761836 0.058219455 0.012291819 -0.021954454 -0.056783743 -0.0038959756 0.01730407 -0.031869903
0.039039373 0.050388373 0.0195596 0.043380305 -0.014132917 -0.041498423 -0.025789 0.032899827
0.032354876 0.032230124 -0.044304043 0.035879463 0.0031561702 -0.0030096918 -0.059144266 0.0446008
-0.019483909 -0.038174845 -0.05540789 -0.047027603 -0.042070083 0.018049657 -0.04731986 0.045614272
0.05535765 -0.009976141 0.045132972 -0.02374158 0.024379507 0.046948977 -0.051374465 0.060922265
0.039241984 0.045054547 -0.050910592 0.036707625 -0.05665616 0.049287513 0.022012927 0.0573029
-0.036204666 -0.02347882 0.021516606 0.01501973 0.020488746 -0.00087002665 0.027869403 -0.042048797
0.056923933 0.014801659 -0.057883054 0.049629293 0.019160837 0.044890173 -0.02551435 -0.01027526
-0.026517935 0.04120145 -0.005628325 -0.041028813 -0.033066593 0.056855828 0.055977955 -0.006904416
-0.046560183 -0.04768218 -0.046229526 0.022803217 -0.011089116 0.027983874 0.029314332 -0.05747257
0.009766959 0.01421383 0.02136448 -0.060827382 0.05317428 0.019997127 0.04919167 -0.023120657
-0.03190749 -0.013751432 -0.052840136 -0.01859039 0.061440974 -0.044252887 -0.013815224 -0.00035170466
-0.055665784 -0.055743463 0.020829521 5.402416e-05 -0.033007912 0.007853098 -0.0020970032 -0.027547292
0.041041978 -0.037123814 -0.0020044595 -0.006214261 -0.039916657 0.03542102 -0.05236859 -0.04553514
-0.019072928 0.011001885 -0.018216811 -0.032277763 0.008242421 -0.05695965 -0.017569602 0.049435973
0.05935149 0.062229015 0.0065965652 0.06244068 0.009280138 -0.042618223 0.032694094 -0.03385838
0.026280463 0.04430913 -0.046054408 0.012625806 -0.03432571 -0.025656745 0.018457144 0.0005517602
0.027498856 -0.036319427 0.04207425 0.01675453 0.02787973 0.0010229573 0.025835246 0.059896544
0.0033281893 0.053670123 0.025502086 0.025465831 -0.026099667 -0.041797638 -0.053316772 0.031225376
0.0488969 0.0053871274 0.059161246 0.013748556 0.042473085 -0.048661508 -0.007048607 0.03799302
0.004944645 -0.03141258 -0.00021634251 0.032053754 -0.012444772 0.0007637739 0.053915597 -0.0073545948
00000000: 4271 293d 686e ad3c 9654 6dbd 9495 333d
00000010: a8de a4bc a496 3b3d c8a1 5abc 30bd 3d3d
00000020: fc0a eabc 4020 1e3c 44dd 8dbc e841 ba3c
00000030: 142d 25bd 34fd 8cbc 9ce2 2abd 4cc4 d83c
00000040: ca71 4bbd 806a debb 40b2 d03b ce0b 30bd
00000050: 18bb d93c 98bc fabc 3003 ecbc ae59 0abd
00000060: 24bf 073d 0001 943b 80bf beba 1cd6 263d
00000070: f4c8 01bd 5e5b 043d 3c80 883c a86b 62bc
00000080: 24b5 223d 7047 e8bb 1a5c 1d3d ecc5 53bd
00000090: 1097 a7bb ee01 2abd 98c7 223c 20cf 843c
000000a0: 7842 e4bc 40ee 083d 30a2 383c d051 6a3d
000000b0: f00f 373d 60e2 c63b de53 4b3d 9cfd c53c
000000c0: b082 e93c 9009 1ebd 30f1 4e3d 6082 e1bc
000000d0: 008c 3b3d a403 393d 7699 1c3d 0286 583d
000000e0: 3cb2 1c3d e6b4 753d 802c e13c a8d8 003d
000000f0: 36a5 70bd 0696 3f3d 747b 90bc ba6c 0dbd
00000100: b8da c1bc f04e 273c 50c1 41bc a02f b43c
00000110: de50 6e3d 74db aebc 4241 3c3d 4072 8dbc
00000120: c052 07bc fa13 583d 98b4 7abd a6c6 0c3d
00000130: 2869 35bc 0023 433c fccb 8dbc 5832 58bc
00000140: 0040 dfb8 50df 3fbc 1834 0b3c 2cb4 ef3c
00000150: 604a ecbc a449 803c ae67 353d 98ab af3c
00000160: b615 1abd 8677 6e3d a063 493c d4d9 b3bc
00000170: 1296 68bd a053 7fbb 44c1 8d3c 048a 02bd
00000180: c0e7 1f3d 0a64 4e3d 743b a03c 8caf 313d
00000190: c08d 67bc 40fa 29bd 7443 d3bc f8c1 063d
000001a0: 8c86 043d bc03 043d 2878 35bd 58f6 123d
000001b0: c0d7 4e3b 403e 45bb 4241 72bd 54af 363d
000001c0: b89c 9fbc 3a5d 1cbd 62f3 62bd 04a0 40bd
000001d0: ae51 2cbd e0dc 933c 78d2 41bd 08d6 3a3d
000001e0: b4be 623d f872 23bc 5add 383d b47d c2bc
000001f0: 88b7 c73c 924d 403d 086e 52bd a089 793d
00000200: 34bc 203d 1e8b 383d a087 50bd bc5a 163d
00000210: 4a10 68bd b4e1 493d 7454 b43c 72b6 6a3d
00000220: 584b 14bd a856 c0bc 9843 b03c 5015 763c
00000230: 04d8 a73c 8012 64ba 604e e43c 5c3b 2cbd
00000240: 1229 693d a882 723c c816 6dbd 1648 4b3d
00000250: 30f7 9c3c c2de 373d 7803 d1bc 9059 28bc
00000260: 243c d9bc dac2 283d d06d b8bb d40d 28bd
00000270: d670 07bd a8e1 683d 2449 653d 703e e2bb
00000280: e4b5 3ebd 644e 43bd 2c5b 3dbd d0cd ba3c
00000290: 20af 35bc 703e e53c 9c24 f03c 5c68 6bbd
000002a0: 9805 203c 20e1 683c 9004 af3c 2226 79bd
000002b0: 46cd 593d 04d1 a33c 347d 493d 8867 bdbc
000002c0: 6eb1 02bd b04d 61bc e66e 58bd e04a 98bc
000002d0: 88a9 7b3d 8442 35bd 4059 62bc 0065 b8b9
000002e0: ce01 64bd 4253 64bd aca2 aa3c 0098 6238
000002f0: 4e33 07bd 48aa 003c e06d 09bb dcaa e1bc
00000300: a21b 283d 240f 18bd 405d 03bb 00a1 cbbb
00000310: a67f 23bd a215 113d 7280 56bd 0e83 3abd
00000320: d43e 9cbc 4041 343c 6c3b 95bc b035 04bd
00000330: 380b 073c 864e 69bd 20ee 8fbc 607d 4a3d
00000340: 8c1a 733d dae3 7e3d 0028 d83b ccc1 7f3d
00000350: b80b 183c 7290 2ebd 3eea 053d 16af 0abd
00000360: 204a d73c 7e7d 353d 8ca3 3cbd 78dc 4e3c
00000370: 1e99 0cbd 182e d2bc 7033 973c 00a4 103a
00000380: 4845 e13c aec3 14bd 0c56 2c3d cc40 893c
00000390: 0864 e43c c014 863a 70a4 d33c 1456 753d
000003a0: c01d 5a3b 34d5 5b3d c0e9 d03c b89d d03c
000003b0: f8ce d5bc 0034 2bbd b062 5abd 5ccc ff3c
000003c0: 1e48 483d 8086 b03b 1053 723d a041 613c
000003d0: 42f8 2d3d 4a51 47bd 00f8 e6bb 929e 1b3d
000003e0: b006 a23b 7aaa 00bd 00da 62b9 cc4a 033d
000003f0: 28e5 4bbc 0038 483a 9ad6 5c3d d0fe f0bb

net.0.weight f4 [256, 2]
0.13872388 0.15203893 -0.039293073 -0.017847212 -0.15740003 -0.13430451 0.15114596 0.16551886
0.1372943 0.15105039 -0.21728575 -0.21563406 0.055501897 0.06915475 -0.0020205588 0.01575586
0.1112838 0.123949125 0.10163921 0.11425764 0.15231729 0.16678311 -0.23391783 -0.26870516
-0.042392407 -0.020707177 -0.12575409 -0.099752545 -0.0005392994 0.017329613 0.097396836 0.110139795
-0.019149818 0.0003917821 0.09315023 0.1050788 0.18425071 0.20154934 -0.04481109 -0.022980317
0.17810914 0.19495568 0.15322137 0.1675743 0.0875225 0.10052072 0.08823958 0.10083969
0.19765367 0.21562524 -0.08487911 -0.06032721 0.107330464 0.119362496 -0.081708804 -0.057445664
0.08968032 0.101555005 4.9442253 -0.26562363 0.17242423 0.18861172 0.15199022 0.16626172
0.13165197 0.14472714 -0.21850452 -0.2182028 0.07809117 0.090605855 0.11336879 0.12543815
0.09556484 0.10760409 -0.08119467 -0.05677569 -0.21014936 -0.20212178 0.14607157 0.16007632
0.15106629 0.16506219 0.07142138 0.084763594 -1.6227388 3.0267038 -0.21736863 -0.21598312
-0.080901995 -0.056560684 -0.23416564 -0.2701703 0.11763141 0.13026597 0.07446622 0.08772823
0.089436725 0.10226199 -0.04000935 -0.018600967 -0.028668815 -0.008153118 0.024853226 0.039843008
0.120978355 0.13378754 0.04510732 0.059580304 0.15765867 0.17255338 0.119084254 0.13188976
-5.8437824 0.581166 0.10475571 0.11736556 0.07661743 0.09005993 0.10688764 0.11960372
-5.1679945 8.731805 0.0731339 0.08652447 -0.121281356 -0.09591075 0.15740249 0.1719727
0.17159767 0.18780597 -0.030392528 -0.0097015 0.16352783 0.1784517 -0.23551142 -0.2792854
-0.23476934 -0.27394283 0.08795112 0.10094204 0.06610907 0.07932305 -0.026064863 -0.0057069906
0.18451785 0.20186812 -0.11375233 -0.08829169 -0.0005719479 0.017589651 -0.115567505 -0.08969342
0.13171272 0.1447923 -0.2128543 -0.20698039 0.052154325 0.06623178 -0.23221709 -0.26003674
0.05818335 0.07204765 -0.22537275 -0.23533079 0.10961608 0.12103369 0.042842943 0.057231378
-0.010689208 0.008068599 0.18966457 0.20734526 0.1444322 0.15829076 -0.16984192 -0.14890626
-0.2248481 -0.23387365 0.101660304 0.11332942 -0.09876165 -0.073802926 0.18320842 0.20048063
-0.097610615 -0.07230217 -0.034949496 -0.013942705 -2.8358347 -3.2580788 0.14454123 0.15818228
-4.7123938 0.8139844 0.1330451 0.14575472 0.15825175 0.17312261 0.0766397 0.08972909
-0.073511705 -0.049555168 -0.1256927 -0.10011224 0.1340682 0.147364 0.09226189 0.105127245
0.16077489 0.17598672 0.07203007 0.08509915 0.042410728 0.056642015 0.055950295 0.0694399
0.04462989 0.05916624 0.19774687 0.21571971 0.13955262 0.15312763 0.08021472 0.093363255
0.12026332 0.13310264 -0.08179382 -0.057336755 -0.23466532 -0.27362332 0.180856 0.19788636
0.13436997 0.14738233 0.098871216 0.111247875 0.17027639 0.18634471 -0.11298107 -0.087461114
-0.02754076 -0.0070876908 0.10905764 0.121349454 -0.01870373 0.0011016135 -0.12277111 -0.09618174
0.18428363 0.20158808 -0.05786448 -0.034959592 -0.21857452 -0.21836092 0.19488057 0.21278626
00000000: a20d 0e3e 18b0 1b3e c6f1 20bd 5134 92bc
00000010: 792d 21be 1f87 09be 02c6 1a3e c77d 293e
00000020: e196 0c3e f4ac 1a3e 2880 5ebe 2dcf 5cbe
00000030: f555 633d 01a1 8d3d 5a6b 04bb 6f12 813c
00000040: c3e8 e33d 0ad9 fd3d 3828 d03d e9ff e93d
00000050: 10f9 1b3e 31c9 2a3e 2888 6fbe b993 89be
00000060: a9a3 2dbd 19a2 a9bc aec5 00be 104b ccbd
00000070: c55f 0dba d5f6 8d3c fe77 c73d f990 e13d
00000080: 14e0 9cbc 1a68 cd39 8cc5 be3d 8e33 d73d
00000090: 38ac 3c3e f362 4e3e d58b 37bd 3841 bcbc
000000a0: 3e62 363e 76a2 473e 10e6 1c3e 9998 2b3e
000000b0: ff3e b33d cfdd cd3d f4b6 b43d 0a85 ce3d
000000c0: b965 4a3e ddcc 5c3e 19d5 adbd aa19 77bd
000000d0: 13d0 db3d 5374 f43d f256 a7bd 254c 6bbd
000000e0: 51aa b73d 12fc cf3d 1837 9e40 d2ff 87be
000000f0: fa8f 303e 6e23 413e 53a3 1b3e 8340 2a3e
00000100: c6cf 063e 5a33 143e a6bf 5fbe 8e70 5fbe
00000110: 43ee 9f3d 908f b93d e52d e83d dc72 003e
00000120: 80b7 c33d 885f dc3d 6449 a6bd a08d 68bd
00000130: 6531 57be 03f9 4ebe c993 153e 0ceb 233e
00000140: 1fb1 1a3e 1006 293e 5f45 923d 8998 ad3d
00000150: e8b5 cfbf 84b5 4140 e295 5ebe ae2a 5dbe
00000160: f2af a5bd 2dac 67bd 1ec9 6fbe c353 8abe
00000170: bde8 f03d 7164 053e bf81 983d dcaa b33d
00000180: 9a2a b73d bc6e d13d d8e0 23bd 0e61 98bc
00000190: ddda eabc a894 05bc fe98 cb3c 6c32 233d
000001a0: 80c3 f73d 9aff 083e 74c2 383d 7a0a 743d
000001b0: 4671 213e d5b1 303e 72e2 f33d 1c0e 073e
000001c0: 4400 bbc0 4cc7 143f 298a d63d 5b5d f03d
000001d0: 99e9 9c3d 5771 b83d e8e7 da3d ccf2 f43d
000001e0: 3660 a5c0 79b5 0b41 3ac7 953d be33 b13d
000001f0: 5c62 f8bd db6c c4bd 1e2e 213e 9d19 303e
00000200: 4db7 2f3e 3550 403e c0f9 f8bc 0af3 1ebc
00000210: d773 273e 0bbc 363e e829 71be 7ffe 8ebe
00000220: 6067 70be 3c42 8cbe b81f b43d b3ba ce3d
00000230: 3164 873d 2074 a23d fb85 d5bc b501 bbbb
00000240: 3ff2 3c3e 84b6 4e3e fbf6 e8bd 46d2 b4bd
00000250: c6ee 15ba 2c18 903c a8ae ecbd 2fb1 b7bd
00000260: b3df 063e 6f44 143e 7af6 59be abf2 53be
00000270: c69f 553d 87a4 873d 51ca 6dbe 8923 85be
00000280: aa51 6e3d b88d 933d 1dc8 66be 8efa 70be
00000290: 657e e03d 83e0 f73d 157c 2f3d 736b 6a3d
000002a0: ca21 2fbc 2832 043c 6e37 423e 5152 543e
000002b0: 09e6 133e f916 223e 0aeb 2dbe e27a 18be
000002c0: 953e 66be 937c 6fbe 4733 d03d 4119 e83d
000002d0: 8c43 cabd fd25 97bd fd9a 3b3e cb4a 4d3e
000002e0: 13e8 c7bd 2913 94bd 3427 0fbd f16f 64bc
000002f0: 517e 35c0 5d84 50c0 9e02 143e 89fa 213e
00000300: eecb 96c0 4861 503f fa3c 083e ba40 153e
00000310: bf0c 223e 0e47 313e 46f5 9c3d e3c3 b73d
00000320: 4e8d 96bd 5cfa 4abd 96b5 00be a507 cdbd
00000330: 2d49 093e 97e6 163e cdf3 bc3d f44c d73d
00000340: 2ca2 243e dd35 343e 8084 933d 7748 ae3d
00000350: dfb6 2d3d 7501 683d 232c 653d 8236 8e3d
00000360: d5cd 363d 4d58 723d 287e 4a3e a1e5 5c3e
00000370: e2e6 0e3e 7dcd 1c3e 9d47 a43d 3c35 bf3d
00000380: 9e4c f63d 0f4c 083e 8583 a7bd f2d9 6abd
00000390: 1b4c 70be 5b18 8cbe 5132 393e b9a2 4a3e
000003a0: 4898 093e 65eb 163e fe7c ca3d edd5 e33d
000003b0: ef5c 2e3e 26d1 3e3e 9f62 e7bd d01e b3bd
000003c0: 299d e1bc dc3f e8bb 9d59 df3d 1086 f83d
000003d0: 9138 99bc 0464 903a 6b6f fbbd effa c4bd
000003e0: d9b4 3c3e 1b6d 4e3e 4e03 6dbd ca31 0fbd
000003f0: 00d2 5fbe 019a 5fbe c68e 473e a4e4 593e

net.0.bias f4 [256]
-2.1567426 -2.0416844 -2.1855483 -2.1714833 -2.120999 -2.2558582 -2.0748127 -2.100972
-2.0918229 -2.0790133 -2.1745262 -2.4238334 -2.0478175 -2.04891 -2.0635417 -2.0658054
-2.0642643 -2.132726 -2.3095326 -2.0610707 -2.2710173 -2.187575 -2.045118 -2.0778413
-2.4082165 -2.0960186 -2.132917 -2.1140904 -2.13983 -5.6648254 -2.2494774 -2.1833632
-2.1354313 -2.2614923 -2.1004848 -2.1419127 -2.1228328 -2.082666 -2.2251682 -2.1584775
-2.1930988 -2.0415523 -0.4905684 -2.268525 -2.093214 -2.4291494 -2.1110492 -2.0412784
-2.0584447 -2.0632877 -2.0411043 -2.1606154 -2.1095536 -2.0489657 -2.1907487 -2.1032844
-5.668968 -2.0836842 -2.0207593 -2.0791252 -0.18071179 -2.0327954 -2.1312308 -2.2067106
-2.2408998 -2.0363452 -2.2366066 -2.4621868 -2.4427602 -2.0454757 -2.0707095 -2.0256393
-2.3096528 -2.115279 -2.0374408 -2.0687668 -2.1355746 -2.237022 -2.0487323 -2.3928337
-2.0400062 -2.311069 -2.1876962 -2.074093 -2.0673447 -2.344933 -2.1567967 -2.2041745
-2.3057568 -2.1565363 -2.1178963 -2.3004117 -2.0738015 -2.0547972 -6.496005 -2.1709802
-1.911264 -2.167289 -2.196576 -2.0517726 -2.0782256 -2.111247 -2.1329963 -2.0546045
-2.1984096 -2.0649636 -2.0946696 -2.0890942 -2.0457304 -2.4090385 -2.1448727 -2.040121
-2.1048677 -2.0826192 -2.4414878 -2.2889137 -2.153216 -2.0964122 -2.2358522 -2.1081634
-2.0332265 -2.1153636 -2.0046923 -2.0403407 -2.3096058 -2.0597527 -2.261597 -2.3849232
-2.3224277 -2.1029365 -2.0321023 -2.1401227 -2.048214 -2.0632777 -2.1982994 -2.3080733
-2.084666 -2.0565674 -2.1048408 -2.215511 -2.056314 -7.220317 -2.2180464 -2.0604758
-2.155037 -2.032765 -2.2411978 -2.0308375 -2.2477667 -2.1451044 -2.365534 -2.0532212
-2.0549757 -2.0724761 -2.1310577 -2.4580555 -2.3501382 -2.1067247 -2.3982527 -2.1698842
-2.0186605 -2.3925526 -2.3648129 -2.1771073 -2.141754 -2.0181763 -2.0509987 -2.073187
-2.0654798 -2.13816 -2.1991942 -2.1514657 -2.2616968 -2.0450418 -2.0274353 -2.067877
-2.297266 -2.2632172 -2.0516968 -2.0568435 -2.1115303 -2.0408518 -2.261838 -2.2352664
-2.4442005 -2.225521 -2.1835365 -2.0586827 -2.0266364 -2.0400157 -2.0463276 -2.1868114
-2.1508465 -2.1015718 -2.0804596 -2.0636292 -2.4017572 -2.218608 -2.3807838 -2.215689
-2.0705845 -2.1086311 -2.0125306 -2.037379 -2.0453894 -2.2063005 -2.11389 -2.4103878
-2.2273545 -2.0607924 -2.2711782 -2.434367 -2.1069517 -2.068939 -2.0562584 -2.1166856
-2.0917687 -2.113051 -2.0414703 -2.168145 -2.0734713 -2.160159 -2.153725 -2.1075342
-2.4496431 -2.195448 -2.0316625 -2.1323185 -2.0641918 -2.1403596 -2.141752 -2.1096072
-2.2053275 -2.037521 -2.1509953 -2.0790553 -2.1174028 -2.0878325 -2.1049848 -2.094734
-2.117777 -2.090317 -2.1003783 -2.1185749 -2.516288 -2.0997305 -2.019482 -2.0763535
-2.0903077 -2.0546005 -2.1449437 -2.070799 -2.0836196 -2.0404267 -2.1031952 -2.12094
00000000: 1208 0ac0 f5aa 02c0 06e0 0bc0 95f9 0ac0
00000010: 73be 07c0 fb5f 10c0 bbc9 04c0 5376 06c0
00000020: 6de0 05c0 8e0e 05c0 702b 0bc0 1620 1bc0
00000030: 710f 03c0 5721 03c0 1111 04c0 2836 04c0
00000040: e81c 04c0 957e 08c0 62cf 13c0 95e8 03c0
00000050: 5958 11c0 3b01 0cc0 37e3 02c0 5afb 04c0
00000060: 3820 1ac0 2b25 06c0 b681 08c0 424d 07c0
00000070: faf2 08c0 4046 b5c0 70f7 0fc0 39bc 0bc0
00000080: e8aa 08c0 4abc 10c0 586e 06c0 1915 09c0
00000090: 7edc 07c0 664a 05c0 2869 0ec0 7f24 0ac0
000000a0: bb5b 0cc0 cba8 02c0 c82b fbbe 832f 11c0
000000b0: 38f7 05c0 2f77 1bc0 6e1b 07c0 4ea4 02c0
000000c0: 8fbd 03c0 e80c 04c0 74a1 02c0 8647 0ac0
000000d0: ed02 07c0 4122 03c0 3a35 0cc0 369c 06c0
000000e0: 3068 b5c0 155b 05c0 1f54 01c0 6310 05c0
000000f0: 830c 39be 5219 02c0 1666 08c0 bf3a 0dc0
00000100: e76a 0fc0 7b53 02c0 9024 0fc0 7894 1dc0
00000110: 2f56 1cc0 13e9 02c0 8186 04c0 13a4 01c0
00000120: 5ad1 13c0 bb60 07c0 6e65 02c0 ad66 04c0
00000130: 41ad 08c0 5e2b 0fc0 6e1e 03c0 3024 19c0
00000140: 768f 02c0 8ee8 13c0 3703 0cc0 f1bd 04c0
00000150: 604f 04c0 6213 16c0 f508 0ac0 3211 0dc0
00000160: 8591 13c0 b104 0ac0 9d8b 07c0 f239 13c0
00000170: 2ab9 04c0 cc81 03c0 46df cfc0 57f1 0ac0
00000180: 4ca4 f4bf ddb4 0ac0 b494 0cc0 3e50 03c0
00000190: a601 05c0 ac1e 07c0 0383 08c0 a47e 03c0
000001a0: beb2 0cc0 5d28 04c0 110f 06c0 b8b3 05c0
000001b0: 3fed 02c0 b02d 1ac0 9845 09c0 5891 02c0
000001c0: 27b6 06c0 a249 05c0 5641 1cc0 907d 12c0
000001d0: 4ace 09c0 9e2b 06c0 3418 0fc0 26ec 06c0
000001e0: 6220 02c0 1e62 07c0 e14c 00c0 f194 02c0
000001f0: 95d0 13c0 fdd2 03c0 01be 10c0 95a2 18c0
00000200: a8a2 14c0 8396 06c0 f70d 02c0 c5f7 08c0
00000210: f015 03c0 be0c 04c0 f0b0 0cc0 79b7 13c0
00000220: 2b6b 05c0 cd9e 03c0 b6b5 06c0 efca 0dc0
00000230: a69a 03c0 d60c e7c0 79f4 0dc0 d6de 03c0
00000240: 20ec 09c0 d218 02c0 c96f 0fc0 3ef9 01c0
00000250: 69db 0fc0 6449 09c0 e964 17c0 fa67 03c0
00000260: b984 03c0 73a3 04c0 4063 08c0 c850 1dc0
00000270: aa68 16c0 94d4 06c0 f97c 19c0 62df 0ac0
00000280: bc31 01c0 951f 19c0 1859 17c0 ba55 0bc0
00000290: 7f12 09c0 cd29 01c0 9043 03c0 19af 04c0
000002a0: d230 04c0 9dd7 08c0 99bf 0cc0 9db1 09c0
000002b0: a4bf 10c0 f7e1 02c0 80c1 01c0 1958 04c0
000002c0: 6806 13c0 8dd8 10c0 004f 03c0 53a3 03c0
000002d0: 5023 07c0 519d 02c0 f4c1 10c0 9b0e 0fc0
000002e0: c86d 1cc0 f06e 0ec0 10bf 0bc0 75c1 03c0
000002f0: 69b4 01c0 9e8f 02c0 08f7 02c0 b8f4 0bc0
00000300: 78a7 09c0 2780 06c0 4026 05c0 8012 04c0
00000310: 64b6 19c0 acfd 0dc0 c35e 18c0 d9cd 0dc0
00000320: 7584 04c0 d0f3 06c0 4dcd 00c0 6b64 02c0
00000330: a9e7 02c0 0734 0dc0 f949 07c0 cb43 1ac0
00000340: fa8c 0ec0 06e4 03c0 fc5a 11c0 abcc 1bc0
00000350: 4cd8 06c0 7f69 04c0 bd99 03c0 c777 07c0
00000360: 8adf 05c0 3a3c 07c0 73a7 02c0 e3c2 0ac0
00000370: c1b3 04c0 0c40 0ac0 a1d6 09c0 d7e1 06c0
00000380: f4c6 1cc0 3882 0cc0 c206 02c0 e877 08c0
00000390: b81b 04c0 a7fb 08c0 7712 09c0 ce03 07c0
000003a0: 1624 0dc0 be66 02c0 e8a9 09c0 3e0f 05c0
000003b0: 8783 07c0 0c9f 05c0 12b8 06c0 1f10 06c0
000003c0: a989 07c0 c1c7 05c0 996c 06c0 bb96 07c0
000003d0: dd0a 21c0 fc61 06c0 313f 01c0 fae2 04c0
000003e0: 9ac7 05c0 937e 03c0 c246 09c0 f987 04c0
000003f0: 065a 05c0 5a96 02c0 c09a 06c0 7bbd 07c0

net.2.weight f4 [1, 256]
-0.173261 0.048477836 0.18871482 -0.19089411 -0.17080322 0.27442205 -0.06503409 0.0047098584
-0.13575095 -0.12311903 -0.19261838 0.32618394 0.052125573 0.14830558 0.002911962 -0.11753199
0.024967218 -0.112788774 -0.2447829 0.055029668 -0.233736 -0.19408908 -0.104765065 -0.10599889
-0.271631 0.10186173 -0.13108556 0.09841725 -0.10841908 1.3401 -0.22402495 -0.19225933
-0.16332288 0.27700168 -0.09337931 -0.13907404 -0.11578684 0.09743033 0.2607799 -0.18350951
-0.19105007 -0.08454017 -3.7927577 0.2747136 0.09722211 0.32757565 -0.14430445 -0.08833558
-0.10732303 0.049441595 0.036065362 -0.027744818 -0.14870425 -0.052121006 -0.20061687 -0.14612012
-2.554531 -0.12718858 -0.090838715 -0.12988946 3.65559 -0.0866005 0.14467499 -0.20041895
-0.22263663 0.038060963 -0.20989092 0.33630225 0.33120152 -0.105310194 -0.0781515 0.032953203
-0.2453184 0.13561378 0.0028660346 0.13687311 -0.16340807 0.26571628 -0.060758065 0.3178584
-0.06812577 0.29388455 -0.13465652 -0.049467083 0.014973494 -0.2551855 -0.18118638 0.20464312
0.29246974 -0.123979755 0.11830043 -0.2429094 0.11625257 0.043480296 -1.9123784 -0.1815262
2.1354725 -0.16562599 -0.20156111 -0.09114268 0.08849354 0.14941837 -0.16656944 -0.110867485
-0.20535342 -0.085487984 -0.049024366 -0.06567 -0.05152376 -0.27183357 -0.1742428 -0.09551834
-0.14769733 0.098121196 0.33081567 -0.23859036 -0.16724981 -0.11975845 -0.22045998 0.13458589
0.03471106 -0.13313308 0.024263497 0.14443627 -0.24484675 0.07019132 0.27715558 -0.26578355
-0.24920407 -0.11141127 -0.09826888 -0.1712751 0.050890483 0.05800703 -0.19798385 0.29281107
-0.12787035 -0.11327603 -0.1462081 -0.20987153 0.12223951 2.1452107 0.25658086 -0.028527455
-0.16226357 -0.014776122 0.26882106 -0.00352593 -0.22510882 -0.17456712 0.3100315 -0.09196062
-0.1117124 -0.12644163 -0.07429699 0.3352009 -0.2567994 0.022835596 -0.26910013 0.18662095
-0.08585814 0.31779876 -0.26049963 -0.19233717 -0.17688528 -0.013826232 -0.019051405 -0.108342
-0.05598301 -0.1773651 -0.19649337 -0.18291993 -0.22673634 -0.08844722 -0.03271761 -0.118227445
-0.24158572 0.2775908 -0.08942064 -0.111984454 0.13982572 0.12002837 0.27648517 -0.21925834
-0.2805047 0.2576081 -0.20119742 0.030621037 0.03730113 -0.064477555 0.0052524847 -0.18297987
-0.10756127 -0.06334376 -0.13834569 0.05120232 0.32023978 -0.21411605 0.3145602 0.2588997
0.083153166 -0.14998698 -0.08189397 -0.0860708 -0.09235258 0.2480143 0.12643594 0.32261613
-0.21729292 -0.11424408 -0.23320334 -0.27808037 -0.14954926 -0.123199366 -0.10345268 0.16153449
0.10788022 -0.151141 -0.04292471 -0.18814139 -0.03160579 -0.17443769 -0.17604974 0.13922329
0.3330156 -0.1998847 -0.08131121 0.16803606 -0.10656676 -0.14796364 0.20974147 0.024359945
-0.20815273 0.036431506 -0.174999 -0.1288415 0.044969175 0.117644556 -0.14945865 0.09490937
-0.044122566 -0.13310523 -0.056124885 -0.15662508 0.35036 -0.14294712 -0.042523686 0.0033934203
-0.018659659 -0.111012444 -0.13769804 -0.12376894 -0.1718789 -0.08765615 -0.07959145 -0.15452431
00000000: 556b 31be b290 463d 753e 413e bf79 43be
00000010: 0ae7 2ebe 0c81 8c3e 9830 85bd 2855 9a3b
00000020: 4c02 0bbe d425 fcbd c13d 45be 9501 a73e
00000030: a081 553d 6bdd 173e 9ed6 3e3b 9db4 f0bd
00000040: 0d88 cc3c cdfd e6bd 5ea8 7abe ca66 613d
00000050: 7d58 6fbe 4abf 46be 118f d6bd f215 d9bd
00000060: 3813 8bbe e29c d03d 4b3b 06be fc8e c93d
00000070: d30a debd 6688 ab3f cc66 65be a1df 44be
00000080: 1d3e 27be 2ad3 8d3e a73d bfbd 6d69 0ebe
00000090: a721 edbd 8e89 c73d f184 853e ebe9 3bbe
000000a0: a1a2 43be 6623 adbd 8bbc 72c0 43a7 8c3e
000000b0: 631c c73d ffb7 a73e 8cc4 13be 49e9 b4bd
000000c0: 2dcc dbbd 4583 4a3d 46b9 133d 1a49 e3bc
000000d0: ed45 18be d67c 55bd 826e 4dbe 83a0 15be
000000e0: 707d 23c0 b93d 02be a609 babd be01 05be
000000f0: 30f5 6940 9a5b b1bd ae25 143e a03a 4dbe
00000100: dbfa 63be d0e5 1b3d a5ed 56be cf2f ac3e
00000110: 3f93 a93e dfac d7bd e50d a0bd f0f9 063d
00000120: bf34 7bbe 57de 0a3e 15d4 3b3b 7728 0c3e
00000130: 7254 27be f70b 883e 73dd 78bd 56be a23e
00000140: 8685 8bbd 0978 963e 66e3 09be ff9d 4abd
00000150: 6353 753c ada7 82be ec88 39be f78d 513e
00000160: 98be 953e 19e9 fdbd 7f47 f23d 3ebd 78be
00000170: d415 ee3d 6518 323d d1c8 f4bf 01e2 39be
00000180: 95ab 0840 dc99 29be 0966 4ebe 03a9 babd
00000190: 1a3c b53d 2101 193e 2e91 2abe 7e0e e3bd
000001a0: 2b48 52be 5314 afbd c6cd 48bd fe7d 86bd
000001b0: 940a 53bd c52d 8bbe b46c 32be 1f9f c3bd
000001c0: f83d 17be c4f3 c83d ac60 a93e 0851 74be
000001d0: 8943 2bbe eb43 f5bd 43c0 61be e2d0 093e
000001e0: 2f2d 0e3d 0a54 08be 3ec4 c63c 1ae7 133e
000001f0: 1bb9 7abe 77c0 8f3d 56e7 8d3e c814 88be
00000200: 5a2f 7fbe 982b e4bd 3241 c9bd bd62 2fbe
00000210: 8a72 503d c898 6d3d 47bc 4abe 55eb 953e
00000220: 72f0 02be 43fd e7bd 93b7 15be 90e8 56be
00000230: b558 fa3d 224b 0940 915e 833e 69b2 e9bc
00000240: 6c28 26be 8c17 72bc eaa2 893e 4a13 67bb
00000250: ed82 66be b9c1 32be 73bc 9e3e d955 bcbd
00000260: 79c9 e4bd ea79 01be 0529 98bd 749f ab3e
00000270: 367b 83be b711 bb3c 7ec7 89be 9019 3f3e
00000280: 64d6 afbd 85b6 a23e 3560 85be 09f4 44be
00000290: 6a21 35be 6c87 62bc b111 9cbc 69e2 ddbd
000002a0: 714e 65bd 329f 35be 8f35 49be 5d4f 3bbe
000002b0: 922d 68be d123 b5bd e702 06bd 3b21 f2bd
000002c0: 3f62 77be 6220 8e3e 2b22 b7bd 1b58 e5bd
000002d0: 792e 0f3e 6fd1 f53d 778f 8d3e 4285 60be
000002e0: 509e 8fbe 35e5 833e b206 4ebe f8d8 fa3c
000002f0: 12c9 183d cf0c 84bd 091d ac3b 135f 3bbe
00000300: 1549 dcbd 60ba 81bd 7eaa 0dbe 86b9 513d
00000310: 78f6 a33e 3d41 5bbe 090e a13e 808e 843e
00000320: 354c aa3d 3096 19be 07b8 a7bd e345 b0bd
00000330: 5923 bdbd 76f7 7d3e 6c78 013e f12d a53e
00000340: 0982 5ebe cdf8 e9bd dbcc 6ebe 8d60 8ebe
00000350: 7123 19be f34f fcbd 00df d3bd 4c69 253e
00000360: 4ef0 dc3d b5c4 1abe d2d1 2fbd 23a8 40be
00000370: 1375 01bd cb9f 32be 6246 34be 8d90 0e3e
00000380: 0581 aa3e 93ae 4cbe 7e86 a6bd a511 2c3e
00000390: ac3f dabd c883 17be 78c6 563e 828e c73c
000003a0: fd25 55be 3439 153d f032 33be 07ef 03be
000003b0: 9931 383d a1ef f03d b00b 19be d85f c23d
000003c0: ddb9 34bd bd4c 08be 35e3 65bd 5362 20be
000003d0: 6362 b33e bb60 12be 512d 2ebd 2564 5e3b
000003e0: 24dc 98bc 7e5a e3bd b700 0dbe 927a fdbd
000003f0: 0601 30be 1185 b3bd d800 a3bd 9f3b 1ebe
