model=mlp_lr=0.01_seed=1_hidden_num=256/best_network.pth (torch, 11137 bytes, 6 tensors)

hidden.weight f4 [256, 2]
0	0xbd7d2a7d	-0.061808098
1	0x3efcf153	0.49402866
2	0x3ea23078	0.31677604
3	0xbe2fadde	-0.17156169
4	0x3effdb99	0.49972227
5	0x3f2bf85d	0.6717585
6	0xbf07338a	-0.5281302
7	0x3f1b8058	0.6074271
8	0xbecc246b	-0.39871535
9	0x3cfbf4de	0.03075641
10	0x3f2e540a	0.68096983
11	0x3da14a4e	0.078755006
12	0xbd904a05	-0.07045368
13	0x3e1c008d	0.15234585
14	0xbf32e78c	-0.6988456
15	0xbea0cde9	-0.31407097
16	0x3d851117	0.064974
17	0x3f230122	0.63673604
18	0xbc4ee520	-0.01262787
19	0xbe940150	-0.2890725
20	0xbe673c81	-0.22581674
21	0x3dba0689	0.09083278
22	0x3ef4a829	0.47784546
23	0xbe746874	-0.2386797
24	0xbf1c6241	-0.61087424
25	0xbed5e02c	-0.41772592
26	0x3e19b804	0.15011603
27	0x3e3bfd5b	0.18358366
28	0xbf16cfe4	-0.58910966
29	0x3f1ba0ed	0.6079243
30	0x3d5a91cd	0.053361703
31	0x3dfa7a90	0.12230408
32	0xbe897662	-0.2684813
33	0xbe387853	-0.1801465
34	0xbc388754	-0.0112627335
35	0xbe176086	-0.14782915
36	0xbe584150	-0.21118665
37	0x3e71d69f	0.23617028
38	0xbe842627	-0.25810358
39	0x3e91470e	0.28374523
40	0x3f0a0a61	0.53922087
41	0x3e438723	0.1909452
42	0x3e9618fd	0.2931594
43	0xbed3b731	-0.413507
44	0x3edacb22	0.42733103
45	0xbf0fd874	-0.56189656
46	0xbec923e7	-0.39285204
47	0x3f0175dd	0.5057047
48	0x3d553f1e	0.052062146
49	0xbf2dea2f	-0.6793546
50	0x3e27ca1b	0.16385691
51	0xbe33e3cf	-0.17567371
52	0x3f1472be	0.5798758
53	0xbebf779d	-0.37395945
54	0x3f09a216	0.5376295
55	0x3d9059c1	0.07048369
56	0xbe78a5d7	-0.24282013
57	0xbed61b12	-0.41817528
58	0xbf14f320	-0.5818348
59	0xbf20102d	-0.6252468
60	0xbdbcaedc	-0.09213039
61	0x3f2b29d9	0.6686073
62	0xbe7e0464	-0.24806362
63	0x3f25a9e8	0.6471238
64	0xbf34214b	-0.703633
65	0x3e4ff0c4	0.20306689
66	0xbefd5142	-0.49476057
67	0x3f0b056f	0.54305166
68	0x3e2f4ae5	0.17118414
69	0xbe1a7e56	-0.15087256
70	0xbe5424df	-0.2071719
71	0xbef99b48	-0.48751283
72	0xbeee7194	-0.46571028
73	0xbf13c2f8	-0.57719374
74	0xbea2a58a	-0.3176692
75	0x3c232e1a	0.009959722
76	0xbe63c63c	-0.22243589
77	0xbed2a4a6	-0.41141242
78	0xbf330959	-0.6993614
79	0xbe8843b8	-0.26614165
80	0x3e87e4d3	0.26541767
81	0x3d2fed66	0.04295101
82	0x3f2e163d	0.6800268
83	0x3c6f46e4	0.014604304
84	0x3e9cf0d6	0.30652493
85	0x3e22e2ed	0.15906878
86	0xbb499a4f	-0.003076214
87	0xbea5d3af	-0.32388064
88	0xbe834f1e	-0.256463
89	0x3f015c7d	0.5053175
90	0x3e8a55b2	0.27018505
91	0x3d9b609d	0.07586787
92	0xbdff12a9	-0.12454731
93	0x3f13ef61	0.5778714
94	0xbefa8e2f	-0.48936602
95	0xbeb3ceb8	-0.3511865
96	0x3ecc07b1	0.39849618
97	0xbeeb6c56	-0.4598109
98	0xbf1b37ea	-0.60632193
99	0xbeb1a4aa	-0.3469594
100	0xbeebc46f	-0.46048304
101	0x3d865f60	0.0656116
102	0xbf104e80	-0.5636978
103	0xbf0cf196	-0.5505613
104	0x3e857eb9	0.26073244
105	0xbf143a93	-0.5790188
106	0xbe21123f	-0.15729617
107	0xbf1b56fd	-0.6067961
108	0xbecebca2	-0.4037829
109	0x3d09c4a1	0.033634786
110	0x3e5ee93d	0.21768661
111	0x3ec72975	0.38898817
112	0x3de4e03d	0.111755826
113	0x3ee75a3f	0.4518604
114	0x3f1ff2e1	0.6247998
115	0x3d3c8738	0.046027392
116	0xbeb45dd1	-0.35227826
117	0xbf1f5afc	-0.62248206
118	0x3ee2b2c0	0.44277
119	0x3ee8495c	0.4536847
120	0xbe4ded1c	-0.20109981
121	0xbe4a9cb1	-0.19786336
122	0xbdd02e10	-0.10165036
123	0x3efbb285	0.49159637
124	0xbeb6dc61	-0.3571501
125	0x3eb59efd	0.3547286
126	0x3d8f65ab	0.070018135
127	0xbf339f0f	-0.7016458
128	0xbf2c2238	-0.67239714
129	0xbf027b25	-0.50969154
130	0x3e9cf722	0.30657297
131	0x3e78f28a	0.24311271
132	0xbf1319de	-0.57461345
133	0xbf2a38cd	-0.6649292
134	0xbe872b3e	-0.2640018
135	0xbec0fb90	-0.37691927
136	0x3f1eb677	0.6199717
137	0xbf07c26b	-0.53031033
138	0x3f32b222	0.6980306
139	0xbf18f1ca	-0.5974394
140	0x3d41b823	0.047294747
141	0x3e46d2a6	0.19416294
142	0x3dbd3e23	0.09240367
143	0x3e6df337	0.2323731
144	0x3e4d946f	0.20076154
145	0x3e0c9e36	0.13732228
146	0x3ec2d0f8	0.38050056
147	0x3eda4558	0.4263103
148	0xbf19303c	-0.59839225
149	0xbeec3592	-0.4613462
150	0xbeadf2ef	-0.33974406
151	0x3efcae67	0.49351808
152	0x3eeccc13	0.46249446
153	0x3f11ac3f	0.5690345
154	0xbc346a72	-0.011011707
155	0x3f2423f7	0.6411738
156	0x3ea690c2	0.32532316
157	0xbf325bc2	-0.6967126
158	0xbf1c1cae	-0.6098126
159	0xbe21888e	-0.15774748
160	0x3f0b8f96	0.5451597
161	0xbf0c9b90	-0.5492487
162	0x3f2f7ba6	0.6854805
163	0xbd1df08b	-0.038559478
164	0xbcca9c3a	-0.024732698
165	0xbd87ac28	-0.06624633
166	0xbd57bec9	-0.05267218
167	0xbe57cc1c	-0.21073955
168	0x3f0472fc	0.5173795
169	0x3f280d0d	0.65644914
170	0xbea76747	-0.32695982
171	0xbf043a11	-0.516511
172	0xbf1bdc4e	-0.60883033
173	0xbf17cbd5	-0.592954
174	0x3e82d2be	0.2555141
175	0xbea59ecf	-0.32347724
176	0x3ec7da75	0.39033857
177	0xbf147f2a	-0.58006537
178	0xbde78ca1	-0.1130612
179	0x3d04cb38	0.032420367
180	0x3f0ec352	0.55766785
181	0xbdab1456	-0.08353488
182	0x3cdcb25c	0.026940517
183	0x3e76f3e6	0.24116477
184	0x3ce67a3a	0.028134454
185	0x3e2ee59a	0.17079774
186	0xbf32f2e5	-0.6990188
187	0x3ede60d0	0.43433237
188	0xbe9020b9	-0.28149965
189	0xbe41f657	-0.18941627
190	0x3d850e43	0.06496861
191	0x3f0b7e76	0.5448984
192	0x3ec24fa0	0.37951374
193	0x3ecd2e77	0.40074512
194	0xbf114a6c	-0.56754184
195	0xbf174a9a	-0.5909821
196	0x3e696664	0.22792965
197	0x3e480ba2	0.19535688
198	0xbeb697e7	-0.35662767
199	0x3e606cc7	0.21916495
200	0xbf05ceba	-0.52268565
201	0xbf01a4b0	-0.5064192
202	0xbf2a14b4	-0.6643784
203	0x3e6a33c8	0.22871315
204	0xbeb8e5af	-0.36112735
205	0xbebaf52c	-0.36515176
206	0x3e2c8f75	0.168516
207	0x3b40400c	0.002933505
208	0xbf226f0c	-0.63450694
209	0xbda17368	-0.0788334
210	0x3e8a41ee	0.27003425
211	0x3d9c907e	0.07644747
212	0x3bfe1a4a	0.0077545987
213	0x3f074faa	0.5285593
214	0xbf0264a3	-0.5093481
215	0xbec63226	-0.38710135
216	0xbdd652cd	-0.10465012
217	0x3e599fd6	0.21252379
218	0xbf0dbcda	-0.5536629
219	0xbdb8161a	-0.089885905
220	0x3eaa5a07	0.3327181
221	0x3efb5d34	0.49094546
222	0x3db42b84	0.087973624
223	0x3e9d7749	0.3075507
224	0xbe9ed5e3	-0.31022558
225	0x3f1ea9d8	0.6197791
226	0xbd9ca215	-0.07648102
227	0xbf244c30	-0.6417875
228	0x3e9ae388	0.30251718
229	0xbea99e47	-0.3312857
230	0x3f338d6a	0.70137656
231	0xbe6fc4de	-0.23414943
232	0x3e8aca0a	0.2710727
233	0xbda0e0ba	-0.07855363
234	0xbea49999	-0.32148436
235	0x3e25a2ce	0.16175386
236	0xbf10d78d	-0.56578904
237	0x3f339ccd	0.70161134
238	0xbef36c8c	-0.47543752
239	0xbe35b08e	-0.17743132
240	0x3df6a08c	0.12042341
241	0xbf1ccb83	-0.61248034
242	0xbecbd46d	-0.39810506
243	0x3f1bd914	0.6087811
244	0x3f2d2fc1	0.6765099
245	0x3ed763b3	0.42068252
246	0x3e534929	0.20633377
247	0xbeb517e9	-0.35369805
248	0x3e37dcc3	0.17955308
249	0xbeede6d2	-0.46465164
250	0x3e92181d	0.28534022
251	0x3e2b8ea5	0.16753633
252	0x3e92ba05	0.28657547
253	0xbe754759	-0.23952998
254	0xbca2d6c6	-0.019877803
255	0x3ea635ee	0.3246302

hidden.bias f4 [256]
0	0x3dffe9b5	0.12495748
1	0xbeaf9b95	-0.34298387
2	0x3e91bd49	0.28464726
3	0x3f16d050	0.5891161
4	0xbe94191f	-0.28925416
5	0x3d2b9798	0.041892618
6	0x3e98f88c	0.29877126
7	0xbe7b928e	-0.24567625
8	0x3ef811d3	0.484511
9	0x3e886c42	0.26645094
10	0x3ea98aff	0.33113858
11	0x3f076fc5	0.5290492
12	0x3e62c353	0.22144823
13	0xbf0ca783	-0.549431
14	0xbf28732c	-0.6580074
15	0xbf17e27a	-0.5932995
16	0x3d25aa68	0.040445715
17	0x3f0db29c	0.5535066
18	0xbef0145a	-0.46890527
19	0x3eb14da0	0.34629536
20	0x3f2dd7df	0.6790752
21	0xbf17ba8f	-0.5926904
22	0x3f28de97	0.65964645
23	0xbe31e109	-0.17371
24	0xbe33e013	-0.17565946
25	0xbedd348c	-0.43204153
26	0x3c664723	0.014055046
27	0xbf34f068	-0.7067933
28	0x3e2ccd7c	0.16875261
29	0x3dbe7daa	0.09301312
30	0xbc9d8db9	-0.019232618
31	0xbf3290ca	-0.6975218
32	0xbd0d497c	-0.03449391
33	0xbee7b4db	-0.4525517
34	0xbe1a2922	-0.15054753
35	0xbe68ba14	-0.22727233
36	0x3e228208	0.15869915
37	0xbe2cee2a	-0.16887727
38	0xbe95954a	-0.2921546
39	0xbe5b57d6	-0.21420226
40	0xbece7ba5	-0.40328708
41	0xbe3127af	-0.17300294
42	0x3f1b227b	0.6059949
43	0xbf093433	-0.53595275
44	0xbdc45466	-0.0958641
45	0xbc009fd7	-0.007850609
46	0x3f0c8fd1	0.54906946
47	0xbe13de96	-0.14440379
48	0xbf26284d	-0.64905244
49	0xbe9b1f23	-0.30297193
50	0x3d4f3e7c	0.0505967
51	0xbe5995c9	-0.21248545
52	0xbd818393	-0.06323924
53	0x3f23dc1d	0.6400774
54	0xbf3100e9	-0.69142014
55	0xbefc1b67	-0.49239656
56	0xbde7bfe5	-0.11315898
57	0xbee99c21	-0.4562693
58	0x3f2df765	0.6795562
59	0x3f2836fb	0.65708894
60	0x3eb3f8ec	0.3515085
61	0x3eef499c	0.46735847
62	0x3f14809b	0.58008736
63	0x3ef7c175	0.48389784
64	0xbf064cf9	-0.524612
65	0xbdb5c94e	-0.088762864
66	0xbef93609	-0.48674038
67	0x3da7475c	0.081679076
68	0x3f1b530b	0.6067359
69	0x3e793a6c	0.24338692
70	0x3e522635	0.20522387
71	0xbe8deafe	-0.27718347
72	0x3e6a62ea	0.22889295
73	0xbebfe3fa	-0.3747862
74	0xbf056a50	-0.52115345
75	0xbdb428d1	-0.087968476
76	0x3e52efa5	0.2059923
77	0x3edc8346	0.43068904
78	0x3f209e2c	0.6274135
79	0xbcdba521	-0.026812138
80	0x3d6a7aa6	0.057245873
81	0xbe99f986	-0.30073184
82	0xbe935bdc	-0.2878102
83	0xbf2a7be4	-0.6659529
84	0x3ed6195f	0.41816232
85	0xbf34f5ee	-0.7068776
86	0x3f30c48d	0.6904991
87	0x3ea4fa5c	0.3222226
88	0xbd5445af	-0.051824268
89	0xbd67d01d	-0.056594957
90	0xbe72a5c3	-0.23696046
91	0x3ed9ada9	0.42515305
92	0xbe7de530	-0.2479446
93	0x3b8edcfa	0.0043598386
94	0xbe3d1b6d	-0.18467493
95	0xbece10b2	-0.40247113
96	0x3ed4b3ee	0.41543525
97	0xbf25af75	-0.6472085
98	0xbefd2d82	-0.49448782
99	0xbea33195	-0.31873766
100	0x3e96d73c	0.29461086
101	0x3f0e9acc	0.5570495
102	0x3c7eab99	0.015543842
103	0x3e4c28bc	0.19937414
104	0xbec79323	-0.38979444
105	0xbe18bd8c	-0.14916056
106	0x3ef04888	0.46930337
107	0xbe7b3e2b	-0.24535434
108	0xbea1f4d4	-0.31632102
109	0xbead5a3e	-0.33857912
110	0x3f254f98	0.64574575
111	0x3c8092f0	0.015695065
112	0xbe9c35a4	-0.30509675
113	0x3e6cdc76	0.23130974
114	0xbe04ee7c	-0.129816
115	0xbea99df5	-0.33128324
116	0x3e853b1b	0.26021656
117	0x3e9b6141	0.30347636
118	0x3e2f8295	0.17139657
119	0xbd8692ba	-0.065709546
120	0x3eee732e	0.4657225
121	0x3f1785c3	0.5918848
122	0x3f1a28b6	0.6021837
123	0xbc01f724	-0.007932458
124	0x3f20400c	0.6259773
125	0xbeecd556	-0.46256512
126	0x3d84bbf9	0.064811654
127	0xbe24dbb1	-0.1609943
128	0xbe14d257	-0.14533363
129	0x3e11aa50	0.14225125
130	0xbe8de4c0	-0.27713585
131	0xbec15ad0	-0.37764597
132	0xbd94daa6	-0.072682664
133	0xbe887a4a	-0.266558
134	0x3b8b9b4c	0.004260456
135	0xbeed139b	-0.4630402
136	0xbf06b839	-0.5262485
137	0x3f15b242	0.58475125
138	0x3e41b53e	0.18916795
139	0x3e537a6a	0.20652166
140	0xbf0c5eef	-0.5483236
141	0x3d7d55b6	0.06184932
142	0xbdf77481	-0.12082768
143	0xbeb4afc1	-0.3529034
144	0xbeeabff2	-0.45849568
145	0xbf24f202	-0.64431775
146	0xbec34068	-0.38135076
147	0x3ef55f5b	0.47924313
148	0xbec4fbcb	-0.38473353
149	0xbda4114d	-0.08011112
150	0xbef04d18	-0.46933818
151	0xbf0e69fc	-0.5563047
152	0xbec5e661	-0.38652328
153	0x3d807899	0.06273002
154	0xbef6f977	-0.48237202
155	0xbd770e75	-0.06031652
156	0xbcaf9a50	-0.021435887
157	0xbd3c1040	-0.045913935
158	0x3e472d5c	0.19450897
159	0x3ed57feb	0.41699156
160	0x3f1c4fa0	0.61059
161	0xbec71c82	-0.38888937
162	0xbf260060	-0.6484432
163	0xbeffdb7a	-0.49972135
164	0x3d79c44e	0.060978226
165	0x3f2296c2	0.6351129
166	0x3dcb9dca	0.09942205
167	0xbeb9457f	-0.36185834
168	0x3d821f18	0.06353587
169	0x3f1a657c	0.603111
170	0xbef14d85	-0.47129455
171	0xbeeba7fc	-0.460266
172	0x3f08de95	0.53464633
173	0xbe19f5e9	-0.15035214
174	0x3e6cee4b	0.23137777
175	0x3eeb86aa	0.46001178
176	0xbe986512	-0.2976461
177	0xbeb7fbd7	-0.35934326
178	0xbe8d6800	-0.27618408
179	0xbef75361	-0.483058
180	0x3eb0c36e	0.345241
181	0x3ef630d3	0.48084125
182	0x3d9ea278	0.07745832
183	0x3ec4415c	0.38331115
184	0xbcbc1e37	-0.022963626
185	0x3ee6cc16	0.4507758
186	0xbe898b41	-0.26864055
187	0xbeb8b651	-0.36076596
188	0x3f1ff1b0	0.6247816
189	0xbeaf7958	-0.34272265
190	0xbe9b632d	-0.30349103
191	0xbf10f44e	-0.5662278
192	0x3e828f01	0.25499728
193	0xbefb3c5e	-0.49069494
194	0x3ef3b20d	0.4759678
195	0x3f1305ee	0.57430923
196	0x3ebe2a91	0.3714185
197	0x3f09b95c	0.5379846
198	0x3e7f1feb	0.2491452
199	0x3e4fe48c	0.20302027
200	0x3f1f69f4	0.62271047
201	0x3d041e11	0.032255236
202	0xbc5fe7d8	-0.013666116
203	0xbea422c8	-0.32057786
204	0x3d592451	0.05301315
205	0x3d8c333d	0.068457104
206	0xbe16963f	-0.14705752
207	0xbe6a768a	-0.22896782
208	0x3ebc9b18	0.36837077
209	0xbeee4746	-0.46538752
210	0x3ee2b5cf	0.44279334
211	0xbf2c7763	-0.6736967
212	0x3effc25d	0.49952975
213	0x3ea50087	0.32226965
214	0xbed4b8e4	-0.4154731
215	0x3f18d072	0.5969306
216	0x3ee2b013	0.4427496
217	0xbf247577	-0.6424174
218	0x3ec12b20	0.37728214
219	0xbeecd1a2	-0.46253687
220	0x3dfb2c7d	0.12264345
221	0x3f1e2781	0.6177903
222	0x3f0df9ae	0.55459106
223	0x3dbdcc66	0.092675015
224	0x3e178d01	0.14799882
225	0xbf1e11ad	-0.6174572
226	0x3e4d02b4	0.20020562
227	0x3f2140a8	0.6298928
228	0x3edf4cc7	0.43613264
229	0xbed89d3f	-0.4230747
230	0xbe2751f1	-0.16339852
231	0x3eb30f5e	0.34972662
232	0x3e9c2c29	0.30502442
233	0xbe09a792	-0.13442829
234	0xbf2a79e8	-0.66592264
235	0xbe9c4510	-0.3052144
236	0x3eac797e	0.3368644
237	0xbf11f3da	-0.5701271
238	0x3f0da47e	0.5532912
239	0x3f1fba33	0.6239349
240	0x3dc012e1	0.09378601
241	0xbf12ae18	-0.57296896
242	0x3f09af49	0.5378309
243	0x3ec3d034	0.38244784
244	0xbeb17413	-0.3465887
245	0xbf2f0510	-0.683671
246	0xbd277afa	-0.040888764
247	0xbf16cd68	-0.58907175
248	0x3f33707d	0.7009352
249	0xbf2fbffc	-0.6865232
250	0x3e67657e	0.2259731
251	0xbeca2435	-0.3948075
252	0x3cb39b16	0.021924537
253	0x3eaec36e	0.34133476
254	0x3d5f7041	0.054550413
255	0x3e0c5544	0.13704401

output.weight f4 [1, 256]
0	0x3bcb8570	0.0062109753
1	0x3d3a0d4c	0.045422837
2	0xbd5613f0	-0.052265108
3	0x3cc02308	0.023454204
4	0x3cf2bc60	0.02963084
5	0x3d14c29c	0.036318406
6	0x3d4d469c	0.050116166
7	0x3cbb40b4	0.022858001
8	0x3d0517d0	0.032493412
9	0xbd136c26	-0.03599181
10	0xbc89ddbc	-0.016829364
11	0xbd55d98e	-0.05220943
12	0xbc851cbc	-0.016249053
13	0xbcfb1338	-0.030648813
14	0x3c20eba8	0.00982181
15	0x3ca03b24	0.01955945
16	0x3d082866	0.033241652
17	0xbb4c5820	-0.0031180456
18	0x3d0d42a0	0.034487367
19	0x3d255cea	0.040371813
20	0xbca5aab0	-0.020222992
21	0xbc3cafb0	-0.011516497
22	0xbd5f6f20	-0.054549336
23	0xbcbf8db4	-0.023382999
24	0xbaec26c0	-0.001801692
25	0xbaf5c080	-0.0018749386
26	0xbc9e05f4	-0.019289948
27	0x3d6c2904	0.057656303
28	0x3d700dc4	0.058606878
29	0x3d11c7f4	0.03559108
30	0xbd646004	-0.05575563
31	0x3d651b04	0.055933967
32	0x3d5af89e	0.053459756
33	0x3d1ef5a2	0.038808472
34	0x3cf988c4	0.030460723
35	0xbbdffe30	-0.0068357214
36	0xbd059cba	-0.03262017
37	0xbd03b60a	-0.032156028
38	0xbbd95250	-0.006632127
39	0x3d4c3f12	0.049864836
40	0x3d5db2ea	0.054125704
41	0xbc373140	-0.011181176
42	0x3d59e39e	0.05319559
43	0x3c1d86e0	0.009614676
44	0x3d79e268	0.061006933
45	0xbd422ae8	-0.0474042
46	0xbd109682	-0.035299785
47	0xbd04cf56	-0.032424293
48	0xbca9fa7c	-0.020749323
49	0x3d1ffcb8	0.03905937
50	0x3d740582	0.059575565
51	0x3d610444	0.05493571
52	0x3d6616e8	0.05617419
53	0x3c075c30	0.008261725
54	0x3d457432	0.048206516
55	0xbc182390	-0.0092858225
56	0xba37ab00	-0.0007006377
57	0xbd06991a	-0.032860853
58	0xbd52f0c0	-0.05149913
59	0xbd73d20c	-0.05952649
60	0x3cd2cba8	0.025731876
61	0xbcebf760	-0.028804481
62	0xbd6e0474	-0.058109716
63	0xbd785a8c	-0.060633227
64	0x3c8ac504	0.016939647
65	0xbd36a532	-0.044591136
66	0xbaa06780	-0.0012237877
67	0xbb808680	-0.0039222836
68	0x3c5ee280	0.0136038065
69	0x3d478ed6	0.048720203
70	0x3d0f791e	0.035027616
71	0xbd0f6144	-0.03500487
72	0x3d2657c6	0.04061105
73	0xbc48e520	-0.012261659
74	0xbd03d102	-0.032181747
75	0xbd4f40a6	-0.050598763
76	0xbca09b6c	-0.01960536
77	0xbc19e7d8	-0.009393655
78	0x3ce2f844	0.027706273
79	0xbd4ea74e	-0.050452523
80	0xbb1e5740	-0.0024160892
81	0xbcd18808	-0.02557756
82	0x3d2422b8	0.040072173
83	0xbccfe848	-0.025379315
84	0x3a95a080	0.001141563
85	0xbca16d08	-0.01970531
86	0xbd23ebce	-0.040019803
87	0x3d1b1886	0.037865184
88	0x3ac3b040	0.0014929846
89	0x3cbafc90	0.02282551
90	0xbbb04340	-0.0053791106
91	0x3c381ed0	0.011237815
92	0xbd023300	-0.03178692
93	0x3d0131d2	0.031541653
94	0x3d376272	0.04477162
95	0xbd25876c	-0.04041235
96	0x3c83c900	0.016087055
97	0x3d6b7510	0.057484686
98	0x3ce4ae88	0.027915254
99	0xbb8ebfa0	-0.0043563396
100	0xbd46ff86	-0.04858353
101	0x3ca89750	0.020579964
102	0xbbbd86b0	-0.0057838783
103	0x3caa8f1c	0.020820193
104	0xbc4fd378	-0.012684695
105	0xbbba4840	-0.0056848824
106	0x3d007b94	0.031367853
107	0x3c26c100	0.010177851
108	0xbcaed620	-0.021342337
109	0x3d3aaa8a	0.045572795
110	0xbd306b3e	-0.043071024
111	0xbc410270	-0.011780366
112	0xbd2e3458	-0.042530388
113	0x3ccd3898	0.0250514
114	0x3d483fd2	0.04888899
115	0x3cfc0150	0.030762345
116	0xbc358268	-0.011078455
117	0x3c971fe8	0.018447831
118	0x3d6dc374	0.058047727
119	0x3ccf3654	0.02529446
120	0x3ca6d1f0	0.020363778
121	0x3cf0511c	0.029335551
122	0x3d09c0fa	0.033631302
123	0xbc6b2f40	-0.014354527
124	0x3c3e6510	0.011620775
125	0xbb44b6a0	-0.003001608
126	0xbc4ae6d0	-0.012384132
127	0xbd640748	-0.055671006
128	0x3d07c3ae	0.0331456
129	0xbd4e0bac	-0.0503041
130	0xbd3d4ad6	-0.046213947
131	0x3cdb234c	0.02675023
132	0x3c6b6be8	0.014368989
133	0xbd38a3c2	-0.045078047
134	0xbd2db720	-0.04241097
135	0xbcea613c	-0.028610818
136	0xbd305986	-0.043054126
137	0x3ca4ed58	0.020132706
138	0x3c90e3fc	0.017686836
139	0x3caedaec	0.021344624
140	0x3b7fde00	0.0039042234
141	0x3d57c504	0.052678123
142	0x3c198970	0.009371147
143	0xbd679f20	-0.056548238
144	0xbd56415e	-0.052308433
145	0x3a73e400	0.0009303689
146	0x3ca1cdac	0.019751392
147	0x3c449ce8	0.0120003
148	0xbb4ec0e0	-0.0031548068
149	0xbb9a6720	-0.0047120005
150	0x3c82d8dc	0.015972547
151	0x3d293a1a	0.041315176
152	0x3d076630	0.033056438
153	0x3d0dd160	0.034623504
154	0x3ccc9308	0.024972454
155	0x3aefc780	0.0018293709
156	0x3caf0a60	0.021367252
157	0x3cd40b30	0.02588424
158	0xbd1ba064	-0.037994757
159	0xbcc083a0	-0.023500264
160	0xbd4bb328	-0.049731404
161	0xbd279788	-0.040915996
162	0x3d598704	0.053107277
163	0x3c905394	0.017617978
164	0xbc2f6910	-0.010706201
165	0x3ca25718	0.01981692
166	0x3c010900	0.007875681
167	0x3d55ebb4	0.052226737
168	0x3ccf87dc	0.025333337
169	0xbd68c048	-0.056824
170	0x3ca1bd44	0.01974357
171	0xbd7d79e0	-0.061883807
172	0xbb820c90	-0.0039687827
173	0x3d4fdca2	0.05074752
174	0xbb2f1b60	-0.0026719198
175	0x3c7075c8	0.014676519
176	0xbd270720	-0.04077828
177	0xbba28660	-0.0049598664
178	0x3ca2f250	0.019890934
179	0x3d5bd944	0.053673998
180	0x3bbcfc30	0.005767368
181	0xbc1faf08	-0.009746321
182	0x3d61ad4c	0.05509691
183	0x3d01f44c	0.03172712
184	0xbcbee1dc	-0.023301058
185	0x3d61f232	0.055162616
186	0xbd53efc8	-0.051742345
187	0x3c933b14	0.017972507
188	0x3cf9241c	0.030412726
189	0x3d70675c	0.05869232
190	0xbd5f20a8	-0.054474503
191	0xbd750ef0	-0.0598287
192	0xbd71966a	-0.058981337
193	0xbbb36490	-0.0054746345
194	0x3bd66880	0.006543219
195	0x3d5c20d0	0.05374223
196	0x3970f200	0.00022978336
197	0xbccb6638	-0.024829015
198	0xbc36e418	-0.01116278
199	0xbcc6f634	-0.02428732
200	0xbd7b370c	-0.061331794
201	0x3d6d3ac6	0.05791738
202	0x3d669b54	0.056300476
203	0x3af01200	0.0018315911
204	0x3ca06c48	0.019582883
205	0x3d55db08	0.052210838
206	0xbd2337c0	-0.03984809
207	0xbc71d940	-0.014761269
208	0xbd63ce80	-0.055616856
209	0xbadc4e80	-0.0016808063
210	0x3d121c7a	0.03567169
211	0x3c77bed8	0.015121184
212	0xbd274afa	-0.040842988
213	0x396ab200	0.00022382289
214	0xbcd85eac	-0.02641233
215	0xbd0c6426	-0.034275196
216	0x3cb41d80	0.021986723
217	0xbc553ed8	-0.013015471
218	0xbd79fa0a	-0.06102947
219	0x3c9ddeac	0.019271217
220	0xbd5110e2	-0.05104149
221	0xbd3c9daa	-0.046048798
222	0x3c1f43e0	0.0097207725
223	0xbd673fec	-0.056457445
224	0xbd344520	-0.044011235
225	0x3d4d89c6	0.05018022
226	0x3d2b3a3c	0.041803584
227	0x3c81f0e4	0.015861936
228	0x3d33c26a	0.04388658
229	0x3c85e398	0.016343877
230	0x3c298250	0.01034601
231	0x3d674780	0.056464672
232	0xbcc8d440	-0.024515271
233	0xbc26ecf0	-0.010188326
234	0xbd7c0138	-0.0615246
235	0xbcea3b28	-0.028592661
236	0x3cd0e028	0.025497511
237	0x3d52af10	0.051436484
238	0xbd79b976	-0.060967885
239	0x3d523802	0.051322944
240	0xbd64398a	-0.055718936
241	0x3d7139ea	0.05889312
242	0xbc715d78	-0.014731757
243	0xbca57810	-0.020198852
244	0xbd365076	-0.044510327
245	0x3d71eada	0.059061863
246	0xbc8f0050	-0.017456204
247	0xbd5e0bdc	-0.05421053
248	0x3c9b9064	0.01898975
249	0xbd72109a	-0.059097864
250	0x3c6dece8	0.014521815
251	0x3d0a06b8	0.033697814
252	0xbce2fcf4	-0.027708508
253	0xbc1cddc8	-0.009574361
254	0xba6de500	-0.0009074956
255	0x3d08d462	0.03340567

net.0.weight f4 [256, 2]
0	0xbd368442	-0.044559725
1	0xbe6529db	-0.22379248
2	0xbd1c72eb	-0.03819553
3	0xbe59587d	-0.21225162
4	0x3d4e15a2	0.0503136
5	0x3e7a29ea	0.24430051
6	0x3ee891e9	0.4542382
7	0x3f280002	0.6562501
8	0xbf12c0e4	-0.5732558
9	0xbf0a6120	-0.5405445
10	0xbb28b4ae	-0.002574246
11	0xbe509c92	-0.20372227
12	0x3e0db748	0.13839447
13	0x3e0fbea3	0.14037566
14	0x3ef892ff	0.4854965
15	0x3f2f11a5	0.683863
16	0xbd1a7274	-0.037706807
17	0xbe59d0a5	-0.21270998
18	0x3dc1eb5f	0.094687216
19	0xbc99f1d0	-0.018792063
20	0xbd1db6bb	-0.038504343
21	0xbe596e1f	-0.21233414
22	0x3e9dcfd5	0.30822626
23	0xbec6a987	-0.38801214
24	0xbef5801f	-0.4794931
25	0xbf1f36c2	-0.6219293
26	0x3e937a2c	0.28804147
27	0x3ec4563d	0.38347045
28	0x3e382781	0.1798382
29	0x3de9fd1c	0.1142523
30	0xbe18ef1e	-0.14934966
31	0xbd6089c9	-0.054818902
32	0x3d1325fd	0.0359249
33	0x3e58d3d6	0.21174559
34	0xbd4f5dd5	-0.050626595
35	0xbe81f72b	-0.25383887
36	0x3eb811b9	0.3595102
37	0xbe328996	-0.17435297
38	0x3e3ca8dd	0.18423791
39	0x3e13989c	0.14413685
40	0x3d149dc1	0.03628326
41	0x3e52ed6c	0.20598382
42	0xbd16c4aa	-0.036808647
43	0xbe540ca8	-0.20707953
44	0x3d11c6ba	0.03558991
45	0x3e548614	0.20754272
46	0xbe91e87e	-0.2849769
47	0x3ed1d08a	0.40979415
48	0x3d15849e	0.036503427
49	0x3e5d778d	0.21627636
50	0x3da92827	0.082596116
51	0x3e4dcb5a	0.20097104
52	0x3d2e104a	0.042496003
53	0x3e69b9c6	0.22824773
54	0xbecdbb7e	-0.40182108
55	0x3da36d09	0.07979781
56	0xbed64c38	-0.41855025
57	0xbf12bea4	-0.57322145
58	0x3d244f1c	0.040114507
59	0x3e62ed6d	0.22160883
60	0xbdd97204	-0.1061745
61	0xbe41d4b3	-0.18928795
62	0xbd394d42	-0.045239694
63	0xbe554d92	-0.20830372
64	0x3e1b9ab7	0.15195738
65	0x3e11f48d	0.14253445
66	0xbe98d462	-0.29849535
67	0x3edfd85a	0.4371975
68	0xbce17463	-0.027521318
69	0xbe6f03c9	-0.23341288
70	0x3ecfc82f	0.40582415
71	0x3f162b7c	0.586601
72	0x3eb0fa2c	0.34565866
73	0xbf01a8dd	-0.5064829
74	0x3d2307d0	0.039802372
75	0x3e6d95e9	0.23201717
76	0xbd2037cd	-0.039115716
77	0xbe5e73fc	-0.21723932
78	0xbe94d9e7	-0.29072496
79	0x3edfd6d0	0.43718576
80	0x3ee2d9a1	0.44306663
81	0x3f1c4cb4	0.6105454
82	0x3e011ede	0.12609431
83	0x3e1c99e4	0.1529308
84	0xbd12bea3	-0.035826337
85	0xbe51e529	-0.20497574
86	0x3d35bec9	0.0443714
87	0x3e6c5c30	0.23082042
88	0xbe942356	-0.2893321
89	0x3ed9109f	0.42395493
90	0x3d25aefe	0.04045009
91	0x3e6f58fb	0.23373787
92	0xbd7c1b3e	-0.061549418
93	0xbe447f5e	-0.19189212
94	0xbd1bd3b5	-0.038043696
95	0xbe5914ff	-0.21199416
96	0x3d367349	0.04454354
97	0x3e6c9ddb	0.23107092
98	0xbd813fb8	-0.063109815
99	0xbe52d4c1	-0.20588972
100	0xbf5eb355	-0.8699239
101	0xbfc6b7ba	-1.5524819
102	0xbd729ed6	-0.05923351
103	0xbe7ac12c	-0.24487752
104	0xbd3c804b	-0.046020787
105	0xbe79a0de	-0.24377772
106	0xbd29bc84	-0.041439548
107	0xbe67402e	-0.22583076
108	0xbd3079d5	-0.043084938
109	0xbe533205	-0.2062455
110	0x3ec81b43	0.390833
111	0x3f188d6b	0.59590787
112	0xbf038c73	-0.51386184
113	0xbf0044aa	-0.50104773
114	0x3e98c634	0.29838717
115	0xbd904a6d	-0.070454456
116	0x3d164402	0.03668595
117	0x3e5fae62	0.21843866
118	0x3e83c788	0.25738168
119	0x3d268cbd	0.040661562
120	0xbd10f166	-0.035386465
121	0x3e514362	0.20435861
122	0x3d1b3c1f	0.037899133
123	0x3e505128	0.20343459
124	0x3d015713	0.03157718
125	0x3e509b46	0.20371732
126	0xbe8dfe10	-0.27732897
127	0x3e450601	0.19240572
128	0x3ee67425	0.45010486
129	0x3f1d8fb3	0.6154739
130	0xbf18e9c1	-0.5973168
131	0xbec1cb6d	-0.37850514
132	0xbefe5c8f	-0.49679992
133	0xbf1fd5f1	-0.62435824
134	0x3d124381	0.035708908
135	0x3e5712d9	0.21003284
136	0xbee3a7c8	-0.44463944
137	0xbf161303	-0.5862276
138	0xbd205c24	-0.039150372
139	0xbe5edb29	-0.2176329
140	0xbeebee3b	-0.46080193
141	0xbf23741e	-0.63849056
142	0xbeb16406	-0.34646624
143	0x3ed14157	0.40870163
144	0x3d11230a	0.035433806
145	0x3e57dcd9	0.2108034
146	0x3d295844	0.041343942
147	0x3e585dad	0.21129484
148	0xbea2e768	-0.31817174
149	0x3ecb9959	0.39765432
150	0x3ee10d22	0.43955332
151	0x3f1b5a7c	0.60684943
152	0x3e9bab04	0.30403912
153	0xbedf9819	-0.4367073
154	0xbd191e25	-0.037382264
155	0xbe582d87	-0.21111117
156	0xbfb0b9ca	-1.3806698
157	0xbfac49ea	-1.3460057
158	0xbd1b78a0	-0.037956834
159	0xbe5a53ea	-0.21321073
160	0x3ef1c09c	0.47217262
161	0x3f2c7707	0.6736912
162	0x3e9cdf7b	0.30639252
163	0xbecda73b	-0.4016665
164	0x3eefc5da	0.46830636
165	0x3f290885	0.66028625
166	0x3d55bad7	0.052180137
167	0x3e7ee630	0.24892497
168	0x3d4e35dc	0.050344333
169	0x3e5bd651	0.21468474
170	0xbb65a4de	-0.0035040895
171	0xbe3171a6	-0.1732851
172	0x3d1502a2	0.036379464
173	0x3e5e10ca	0.21686092
174	0x3f02b407	0.5105595
175	0x3eaa42cf	0.33254096
176	0xbd29d901	-0.041466717
177	0xbe68f263	-0.22748713
178	0x3d15c182	0.036561497
179	0x3e5f6bce	0.21818468
180	0xbee40411	-0.44534352
181	0xbf0f1f99	-0.5590759
182	0x3ee6ecb2	0.4510246
183	0x3f0a3a8e	0.539956
184	0x3f28cda4	0.6593878
185	0x3e6b8831	0.23001172
186	0x3d11d211	0.035600726
187	0x3e598b07	0.21244441
188	0xbd1babf1	-0.038005773
189	0xbe537e71	-0.20653702
190	0xbd2834af	-0.041065868
191	0xbe653bd7	-0.22386108
192	0xbd105dca	-0.035245694
193	0xbe502794	-0.20327598
194	0x3d1ed2a8	0.038775116
195	0x3e689e62	0.22716668
196	0xbf27279c	-0.65294814
197	0xbe956157	-0.29175827
198	0x3ed71197	0.42005607
199	0x3f18253f	0.59431833
200	0x3da469e7	0.08028012
201	0x3e36cc0b	0.17851274
202	0xbed52abf	-0.41634175
203	0x3f0f34fa	0.5594021
204	0xbd061668	-0.032736212
205	0xbe6cb30a	-0.23115173
206	0x3eaa4257	0.33253738
207	0xbe0a3ab8	-0.13498962
208	0x3ebee950	0.37287378
209	0xbea6329f	-0.32460496
210	0x3e805aec	0.25069368
211	0x3da9c6e7	0.08289891
212	0xbef1196d	-0.4708971
213	0xbf201d1c	-0.6254442
214	0xbd292373	-0.041293573
215	0xbe66837d	-0.22511096
216	0x3f2122ec	0.6294391
217	0x3ee0b963	0.4389144
218	0xbee46255	-0.4460627
219	0xbf199a29	-0.60000855
220	0x3eedb62e	0.46428055
221	0x3f2461fe	0.64212024
222	0xbd4516e7	-0.048117545
223	0xbe7c81de	-0.24658915
224	0xbe93e1eb	-0.288833
225	0x3ed21059	0.41028097
226	0x3d1f27e7	0.038856413
227	0x3e600465	0.21876676
228	0xbe8b808b	-0.27246508
229	0x3ecabeba	0.39598638
230	0x3ca54e7d	0.020179028
231	0xbe854965	-0.26032558
232	0x3d1b849b	0.03796826
233	0x3e5d17ba	0.21591082
234	0xbeb2ca63	-0.34920034
235	0xbef0171a	-0.46892625
236	0x3d1617a1	0.036643628
237	0x3e5f1adc	0.2178759
238	0x3cfa0a20	0.030522406
239	0x3e4e9f74	0.20178014
240	0xbfc6cdf0	-1.5531597
241	0xbfaf8b03	-1.3714298
242	0x3d4872e4	0.048937693
243	0x3e7972d7	0.24360214
244	0xbe9d184c	-0.306826
245	0x3ee8a6aa	0.45439655
246	0x3f029d72	0.5102149
247	0x3dbcebac	0.09224638
248	0xbea4777c	-0.3212241
249	0x3e70b6bf	0.23507212
250	0xbeb122d3	-0.3459688
251	0x3eb20a7f	0.34773633
252	0xbee79416	-0.45230168
253	0xbf186436	-0.5952791
254	0x3e369d9e	0.17833564
255	0x3e1d60b9	0.15368928

net.0.bias f4 [256]
0	0xbf39cbe9	-0.7257677
1	0x3dd780d4	0.10522619
2	0xbf82b189	-1.021043
3	0xbf554f09	-0.83323723
4	0x3e180109	0.14844145
5	0xbf4881a8	-0.7832284
6	0xbf15182d	-0.58240014
7	0xbf6ce7dc	-0.9254129
8	0x3d46a8aa	0.048500694
9	0xbf4ecd33	-0.8078186
10	0x3decd56f	0.11564147
11	0x3c610879	0.01373493
12	0x3ea9be31	0.33152917
13	0xbf10d62f	-0.5657682
14	0xbea5d6a6	-0.32390326
15	0xbf3c8f28	-0.7365594
16	0xbec173f7	-0.37783787
17	0xbf6b49e5	-0.9190963
18	0xbf6b9e10	-0.9203806
19	0xbf41fe4e	-0.75778663
20	0xbec5fe50	-0.38670588
21	0xbe51d8e4	-0.20492893
22	0xbeba7159	-0.36414602
23	0xbdd6213f	-0.1045556
24	0x3d1ce737	0.03830644
25	0xbf56ac1b	-0.8385636
26	0xbf4d4077	-0.8017649
27	0x3df4713e	0.11935662
28	0xbe79bcdc	-0.2438845
29	0xbf3910c0	-0.72291183
30	0xbf6022ca	-0.87553084
31	0xbf11f136	-0.57008684
32	0xbd842292	-0.06451906
33	0x3e2db716	0.16964373
34	0xbf5c3dec	-0.86031985
35	0xbefe4379	-0.49660853
36	0xbf55214a	-0.8325392
37	0x3e72c22a	0.2370688
38	0xbee05737	-0.4381654
39	0x3de07c31	0.10961188
40	0x3cb46561	0.022020997
41	0xbf197b4b	-0.59953755
42	0xbe9020da	-0.28150064
43	0xbf5f5f5b	-0.87254876
44	0x3d12fbc9	0.035884652
45	0x3e8a0491	0.2695661
46	0xbd1dc14e	-0.038514428
47	0x3e10bcba	0.14134493
48	0xbf601f57	-0.8754782
49	0xbf297407	-0.6619267
50	0xbf016da5	-0.5055793
51	0xbf7934fa	-0.9734646
52	0xbf64d9e9	-0.89395005
53	0xbf15ccad	-0.58515435
54	0xbeef2366	-0.46706694
55	0xbf23f327	-0.64042896
56	0xbde18c47	-0.11013084
57	0xbe6da51b	-0.23207514
58	0x3c9d1492	0.019174848
59	0xbf10044b	-0.5625655
60	0xbf72a2fc	-0.94779944
61	0xbe79091e	-0.24319884
62	0xbf0b1630	-0.5433073
63	0xbcc2adc1	-0.023764493
64	0xbef8fba9	-0.486295
65	0xbebd089f	-0.3692064
66	0x3ebcd917	0.36884376
67	0xbeb18c23	-0.34677228
68	0x3d410dba	0.04713223
69	0x3e6bb416	0.23017916
70	0xbf161a89	-0.5863424
71	0xbf545ef5	-0.8295739
72	0xbe83f3ab	-0.2577184
73	0x3d8d81d5	0.06909529
74	0xbf16d3a2	-0.58916676
75	0x3d02fde3	0.031980406
76	0xbf025cf1	-0.5092307
77	0xbce9c2d7	-0.02853529
78	0xbeca8788	-0.39556527
79	0x3dd1b0b3	0.10238781
80	0xbf663054	-0.8991749
81	0xbecf474f	-0.40484092
82	0x3ebad0bd	0.3648738
83	0xbf863e17	-1.0487698
84	0xbf455509	-0.7708288
85	0xbe788d24	-0.24272591
86	0xbc080532	-0.00830202
87	0xbf3c9e8d	-0.7367943
88	0xbf3f259f	-0.7466678
89	0x397d8f25	0.00024181286
90	0xbd7081c6	-0.05871751
91	0xbf27ae5e	-0.6550044
92	0xbeeb11c4	-0.45911992
93	0xbe7ee834	-0.24893266
94	0xbe7b833b	-0.24561779
95	0xbf1354e6	-0.5755142
96	0xbe29a375	-0.1656626
97	0x3e652c85	0.22380264
98	0xbe44aa53	-0.19205599
99	0xbeec1fb6	-0.46117944
100	0xbe14bce5	-0.14525183
101	0xbf990e26	-1.1957443
102	0xbf5dc370	-0.8662634
103	0xbd848c13	-0.064720295
104	0xbf57fa70	-0.8436651
105	0xbe34c058	-0.17651498
106	0xbf368b86	-0.71306646
107	0xbf153f61	-0.58299834
108	0xbf5a4be6	-0.8527206
109	0xbe3366ef	-0.17519735
110	0x3ea5a1f6	0.3235013
111	0xbf58cac1	-0.8468438
112	0xbdbf52ef	-0.0934199
113	0xbf245b87	-0.6420216
114	0xbecb711c	-0.39734733
115	0x3e774336	0.24146733
116	0xbf18ed8a	-0.59737456
117	0x3e85be25	0.2612163
118	0x3c969f7e	0.018386599
119	0xbe2a8b1b	-0.16654627
120	0x3ea17cf8	0.31540656
121	0xbf83116c	-1.0239692
122	0x3e9c1770	0.3048663
123	0xbf1a0e39	-0.6017795
124	0xbd38f90a	-0.045159377
125	0x3e492ff1	0.19647194
126	0xbeb03edb	-0.34422955
127	0xbec0b703	-0.37639627
128	0xbefe8d27	-0.49717066
129	0xbebbe7a2	-0.3670016
130	0xbed9737f	-0.4247093
131	0xbf26e9c7	-0.65200466
132	0xbdd831ce	-0.105563745
133	0xbe51f877	-0.20504938
134	0xbf769776	-0.9632486
135	0xbef3cd77	-0.47617695
136	0xbf00cb81	-0.5031052
137	0xbeb6bd2b	-0.356912
138	0xbf3221e0	-0.6958294
139	0xbf945b1a	-1.1590302
140	0x3c8b800d	0.017028833
141	0xbec52cec	-0.38510835
142	0xbf5b3e39	-0.8564182
143	0xbf7dca9b	-0.99137276
144	0xbecf9abd	-0.40547743
145	0x3e147b60	0.14500189
146	0xbe8b0d40	-0.27158546
147	0xbef688de	-0.48151296
148	0xbdbd1d0d	-0.092340566
149	0x3ebd2c65	0.36947933
150	0xbf5255f0	-0.8216238
151	0x3e5b2bd4	0.21403438
152	0xbf6d5e44	-0.9272196
153	0x3e86f937	0.2636201
154	0xbce3a818	-0.027790114
155	0xbf291885	-0.6605304
156	0x3c997013	0.018730199
157	0xbf6c9ebb	-0.92429703
158	0xbe8bfaeb	-0.27339873
159	0xbf01525c	-0.50516295
160	0xbeb6a8e5	-0.3567573
161	0xbf88c646	-1.0685508
162	0xbe87531c	-0.26430595
163	0xbf728e80	-0.9474869
164	0x3e0fae78	0.14031398
165	0xbe903759	-0.28167227
166	0x3e956dad	0.29185238
167	0xbcf3f79c	-0.029781155
168	0xbe836609	-0.25663784
169	0xbf6540f0	-0.8955221
170	0xbc6b577c	-0.01436412
171	0xbf0da05d	-0.5532282
172	0xbea7773a	-0.3270815
173	0xbf827d11	-1.0194417
174	0xbf6f4bc1	-0.93474966
175	0xbf4a9c40	-0.7914467
176	0xbf3b8384	-0.7324755
177	0xbf0e3a38	-0.55557585
178	0x3d7243d8	0.059146732
179	0xbf740e47	-0.95334285
180	0xbf8666ca	-1.0500119
181	0x3e653932	0.223851
182	0xbe939d7c	-0.2883109
183	0xbecb051b	-0.39652333
184	0x3e88f811	0.2675176
185	0xbf64e48d	-0.8941124
186	0x3be84b3f	0.007089048
187	0x3e4ae15c	0.1981253
188	0xbdf35ca3	-0.118829034
189	0xbf2af5ea	-0.66781485
190	0xbf674ac5	-0.90348464
191	0xbe2bf6b2	-0.16793326
192	0x3dc1833c	0.09448859
193	0xbf200195	-0.62502414
194	0xbe8cf487	-0.2753031
195	0x3d06a4a3	0.032871854
196	0xbf7dd395	-0.99150974
197	0xbf7ccf33	-0.9875366
198	0xbf8918a9	-1.0710651
199	0xbf63adb1	-0.8893691
200	0xbbb9abe1	-0.0056662415
201	0x3a20ade5	0.0006129428
202	0xbea3c6cf	-0.31987616
203	0xbf764666	-0.9620117
204	0x3ca132e2	0.019677583
205	0xbe5456b4	-0.207362
206	0xbf4aa1ed	-0.7915333
207	0x3e783485	0.24238785
208	0xbf580b46	-0.843922
209	0xbf80dd90	-1.0067616
210	0xbe794bcd	-0.24345322
211	0xbf206eb7	-0.6266894
212	0xbf771f34	-0.9653199
213	0xbf3895e8	-0.7210374
214	0xbd8c0d79	-0.06838507
215	0xbf47f675	-0.7811044
216	0x3eb8d3c2	0.36099058
217	0x3e6cb205	0.23114784
218	0xbed7d43f	-0.42154118
219	0x3e8ef155	0.27918497
220	0x3e57d34f	0.21076702
221	0x3e3eb62f	0.18624185
222	0xbef7841c	-0.4834298
223	0xbf4abedc	-0.7919748
224	0xbf0a7165	-0.54079276
225	0x3e912e22	0.2835551
226	0x3e374359	0.17896785
227	0x3e898bec	0.26864564
228	0xbe8f3578	-0.2797048
229	0x3e9361b7	0.28785488
230	0x3e2b5275	0.16730674
231	0xbf502443	-0.8130533
232	0xbed5eebd	-0.41783705
233	0xbc7e6e32	-0.015529202
234	0xbe09275e	-0.13393924
235	0xbec6968a	-0.38786727
236	0x3e260cd6	0.16215834
237	0xbeb095bd	-0.3448924
238	0xbe0ae5cf	-0.13564228
239	0xbfd6e11e	-1.678745
240	0xbf599d52	-0.85005677
241	0x3ec5fcea	0.3866952
242	0xbf5f3d5f	-0.8720302
243	0xbf48ce5d	-0.78439885
244	0xbed34072	-0.41260105
245	0xbe2f1fb4	-0.17101938
246	0xbf859f6a	-1.0439274
247	0xbe749000	-0.23883057
248	0xbf115776	-0.5677408
249	0x3ee060a6	0.43823737
250	0xbe926a73	-0.2859684
251	0xbf671203	-0.9026186
252	0xbee16568	-0.4402268
253	0xbee99cc1	-0.45627406
254	0xbe542bc4	-0.2071982
255	0xbf72ddeb	-0.9486987

net.2.weight f4 [1, 256]
0	0x3e9ddb19	0.3083122
1	0x3ea8eeef	0.32994792
2	0xbedbb3b9	-0.42910555
3	0x3ef051e7	0.46937487
4	0xbe86a2fb	-0.2629622
5	0x3e6c7ad4	0.2309373
6	0xbe23a9e4	-0.15982777
7	0x3f112877	0.5670237
8	0x3eaf0156	0.34180707
9	0x3bbeca97	0.0058224904
10	0x3ea85b71	0.32882264
11	0xbe5c42c7	-0.21509849
12	0xbedd7f1a	-0.43261033
13	0x3d6e6e9c	0.058210954
14	0xbdfaa870	-0.12239158
15	0x3d885f0e	0.06658755
16	0xbeb272a0	-0.34853077
17	0x3ee07d35	0.43845525
18	0xbe06d39a	-0.13166657
19	0xbe1c7fd4	-0.15283138
20	0xbe9e2ac6	-0.3089201
21	0x3ea0a780	0.31377792
22	0xbea35cd3	-0.31906757
23	0x3e4be2e9	0.19910778
24	0xbea76c5f	-0.32699868
25	0xbe84b184	-0.25916684
26	0xbecc9c40	-0.3996296
27	0x3cf3230d	0.0296798
28	0xbea1ee36	-0.31627053
29	0xbebdaa71	-0.370441
30	0x3e5933a8	0.21211112
31	0x3e8f5cec	0.2800058
32	0xbe1b164f	-0.15145229
33	0x3e6f95e0	0.23397017
34	0x3e8171f6	0.25282258
35	0x3eaca46a	0.33719188
36	0xbeb52c7d	-0.35385504
37	0xbec3e9d5	-0.38264337
38	0x3eb4d4a2	0.35318476
39	0x3e5929cf	0.21207355
40	0x3eefa368	0.46804357
41	0xbe33bd35	-0.17552646
42	0x3e981c61	0.2970915
43	0xbec6fb02	-0.3886338
44	0x3e5ebd96	0.21752009
45	0xbec35b89	-0.38155773
46	0x3e7934b3	0.2433651
47	0x3ea43b6a	0.3207658
48	0xbec767ca	-0.38946372
49	0x3e830864	0.2559234
50	0x3ff4b88c	1.9118819
51	0x3eab2761	0.3342848
52	0x3ebb1ea5	0.36546817
53	0x3ec06e52	0.37584168
54	0x3e92462d	0.28569165
55	0x3ea20e52	0.3165155
56	0xbe9589d4	-0.29206717
57	0xbd254461	-0.040348414
58	0xbeb319f2	-0.34980732
59	0xbd8d0bf1	-0.06887043
60	0xbe4f6d69	-0.2025658
61	0xbe94ea93	-0.29085216
62	0xbe92932d	-0.2862791
63	0x3d180735	0.03711625
64	0x3efebf23	0.497552
65	0xbe89e287	-0.2693064
66	0xbede9140	-0.43470192
67	0xbeac34cb	-0.33634028
68	0xbeb400c7	-0.35156843
69	0x3eafbf50	0.34325647
70	0xbee0616b	-0.43824324
71	0x3e5dad5e	0.21648166
72	0xbead7509	-0.33878353
73	0xbe8d1e49	-0.27562168
74	0x3e64be1f	0.2233815
75	0x3ede5676	0.4342534
76	0xbe6ad689	-0.22933401
77	0x3eacfae9	0.3378518
78	0x3f7c076c	0.98448825
79	0x3eacd61a	0.33757097
80	0x3f041a9c	0.516031
81	0xbe64a9cf	-0.22330402
82	0x3f06a847	0.5260052
83	0xbeed7ffd	-0.4638671
84	0xbe9f5110	-0.31116533
85	0x3e46403c	0.19360441
86	0xbeb08758	-0.3447826
87	0x3e154113	0.14575605
88	0x3ea5f5fa	0.32414228
89	0xbeb4b867	-0.35296938
90	0xbe9b5ca8	-0.3034413
91	0x3e8c19bd	0.27363387
92	0x3e7043f7	0.23463427
93	0xbeb3537a	-0.35024625
94	0x3e9e38f2	0.3090282
95	0x3eba9bbe	0.36446947
96	0x3e9594be	0.29215044
97	0xbeafd9eb	-0.34345946
98	0xbe855a83	-0.26045617
99	0x3ec1ddd3	0.3786455
100	0xbe558035	-0.20849688
101	0x3ef97ac2	0.4872647
102	0x3e9ea0cd	0.30982056
103	0xbd7c3173	-0.061570596
104	0xbe4b6746	-0.19863614
105	0xbd9f5f64	-0.07781866
106	0xbec0b695	-0.376393
107	0x3ebe0cfc	0.3711928
108	0x3e91edc8	0.28501725
109	0xbed7ada7	-0.42124674
110	0x3edce163	0.43140706
111	0x3ed7a4cd	0.4211792
112	0x3e306893	0.17227392
113	0xbebd86ff	-0.37017056
114	0x3e1ed1fb	0.15509789
115	0x3e1494fd	0.1450996
116	0xbeb6d7d4	-0.3571154
117	0xbdefffce	-0.11718713
118	0xbeb0efd3	-0.3455797
119	0xbe8ccbdf	-0.2749929
120	0x400c362d	2.1908066
121	0xbed58d66	-0.4170944
122	0x3e6420af	0.22278093
123	0x3da83493	0.08213153
124	0x3db41207	0.08792501
125	0x3e079918	0.13241994
126	0xbea5b86c	-0.32367265
127	0xbe02fe9b	-0.12792437
128	0xbd6b4dde	-0.057447307
129	0x3e982f2a	0.29723483
130	0x3e12ace9	0.14323772
131	0x3eb1e897	0.34747764
132	0xbe53e361	-0.20692207
133	0xbeb382d2	-0.35060745
134	0xbf1f1451	-0.62140375
135	0xbeb844f8	-0.3599012
136	0xbe89bc57	-0.26901504
137	0x3da69bf3	0.08135214
138	0xbeb904fc	-0.36136615
139	0x3ef1c247	0.47218534
140	0xbeb9b1be	-0.3626842
141	0x3e5b9315	0.21442826
142	0x3ea6fbd5	0.32614008
143	0x3e9b9a56	0.30391186
144	0xbd8fa3bb	-0.07013651
145	0xbee8c25f	-0.45460793
146	0xbeb26fd5	-0.34850946
147	0x3ebb503b	0.36584648
148	0xbeb3c6fc	-0.3511275
149	0x3e429474	0.19001943
150	0x3e2d0845	0.16897686
151	0xbe7e3cb7	-0.24827848
152	0x3edc5536	0.4303376
153	0xbe80059e	-0.25004286
154	0xbf33c409	-0.70221
155	0xbeaed25a	-0.3414486
156	0x3e6d4c6d	0.23173685
157	0xbe7f890e	-0.24954626
158	0xbe443afa	-0.19163123
159	0x3cbc5edf	0.022994457
160	0xbe9582aa	-0.2920125
161	0xbec34447	-0.3813803
162	0xbe57e74d	-0.21084328
163	0x3e2773d0	0.16352773
164	0xbd594e89	-0.053053413
165	0x3d959e61	0.07305599
166	0xbebf9226	-0.3741619
167	0xbe864c88	-0.26230264
168	0x3e185163	0.14874797
169	0xbe9b24b8	-0.30301452
170	0x3e4a766d	0.19771738
171	0x3e3a11de	0.18170878
172	0xbce3b91b	-0.027798226
173	0xbedfa4ab	-0.4368032
174	0xbe978773	-0.29595527
175	0x3ebbee4b	0.3670524
176	0xbe75c6ba	-0.2400159
177	0x3d267f32	0.040648647
178	0x3eadee8f	0.33971068
179	0xbeb180fa	-0.34668714
180	0x3edbfa7d	0.42964545
181	0x3eb39e0b	0.35081515
182	0xbe3013c0	-0.17195034
183	0x3eaf63e7	0.34255907
184	0x3e85cf61	0.2613478
185	0xbecec737	-0.40386364
186	0xbeb18870	-0.34674406
187	0xbeb02d85	-0.3440973
188	0xbc87828f	-0.016541747
189	0xbeb7721a	-0.3582924
190	0xbea36a5a	-0.31917077
191	0xbd906762	-0.07050969
192	0xbdd35c37	-0.10320323
193	0xbe953562	-0.2914229
194	0x3eaf1396	0.3419463
195	0x3ebb5f94	0.36596358
196	0xbeca3256	-0.39491528
197	0xbeadb1c2	-0.3392468
198	0xbf2b23ac	-0.66851306
199	0x3ed54376	0.4165303
200	0xbe9830e2	-0.29724795
201	0xbe7ad8c5	-0.24496754
202	0x3e988426	0.2978832
203	0x3ed32d90	0.412457
204	0x3e959287	0.29213354
205	0x3e629356	0.22126517
206	0x3ead4ede	0.33849233
207	0x3e54347b	0.20723145
208	0xbd09ba31	-0.03362483
209	0x3ee743e0	0.45168972
210	0xbd6eeb40	-0.05832982
211	0x3cb81d06	0.022474777
212	0x3d8316f0	0.06400859
213	0x3df8e6ca	0.121533945
214	0xbeaead2e	-0.341165
215	0x3dd1a3ea	0.10236342
216	0x3dec73dd	0.11545537
217	0x3edff290	0.43739748
218	0x3ea939fd	0.33052054
219	0x3d7cbbbc	0.061702475
220	0x3eb7b8d5	0.35883203
221	0xbee18370	-0.4404559
222	0xbdb51057	-0.08841007
223	0x3ec600e1	0.38672546
224	0x3f0269ce	0.50942695
225	0x3e4551db	0.19269507
226	0xbe9dc44c	-0.30813825
227	0xbc097416	-0.008389493
228	0xbeb1318b	-0.3460811
229	0xbe6ce411	-0.23133875
230	0x3e3e09bd	0.18558402
231	0xbecd6645	-0.40117088
232	0xbe157292	-0.14594486
233	0xbeaea81c	-0.34112632
234	0x3db1236d	0.08649335
235	0xbeb05650	-0.3444085
236	0xbebdc40c	-0.37063634
237	0xbea29c10	-0.3175969
238	0xbe8db45e	-0.27676672
239	0xbf8c7996	-1.0974605
240	0x3ef2ea86	0.47444552
241	0x3e62db92	0.22154072
242	0xbe6ceabf	-0.23136424
243	0xbeb7a6f8	-0.35869575
244	0xbe812bf6	-0.25228852
245	0xbe0126aa	-0.12612405
246	0x3ed9df7f	0.42553326
247	0xbb073e22	-0.00206364
248	0xbea91de0	-0.33030605
249	0xbf039171	-0.513938
250	0x3eadec01	0.3396912
251	0xbd9da840	-0.07698107
252	0x3dfd4d83	0.123683
253	0xbeadc068	-0.33935857
254	0xbea510fb	-0.32239518
255	0x3edcf2a8	0.43153882
