model=mlqp2_lr=0.01_seed=1_hidden_num=256/best_network.pth (torch, 8893 bytes, 3 tensors)

FC1.weight f4 [256, 4]
00000000: 1c8e c7be a59f 913e b128 023e 4289 09bf
00000010: a5da de3e 3035 56c0 7f7a 8f3e f8f4 473f
00000020: e8cf 023e f293 bbbd ed2f 25be bd11 23be
00000030: 7cdf 2f3e afc2 28bf 963d eabd b0a0 e7bd
00000040: 99a2 09bf e4ab e6bd 27a5 583e 43d8 cbbe
00000050: b647 bf3e 4a67 a73e 34ca 9bbe 69b7 693e
00000060: dd6b 26bf 963f 83be 11ae a8be 0f97 393e
00000070: 8f37 563e b3db e0bd 31fc 11bf 9bab 90be
00000080: 7afe d03f aa91 c63e c68f f43e 0f19 263e
00000090: 9935 0ebe 0ab0 9bbe 3a94 07bf f6c6 603e
000000a0: 7ba7 d33e da6c 07bf 39c3 7f3e ca46 b33c
000000b0: 0405 9abe 4bcf 5dbc b539 53be 124d 9fbd
000000c0: 6dfd c2be 631c 52be 1f15 43be c905 f1be
000000d0: 35ff 033f c75c 4fbe 778e eabd e9aa 6cbe
000000e0: 5f24 d5be 0696 263f 6023 4abf a7f0 8cbe
000000f0: 4d58 8ebd e88f 833e 21dc 98bd 1899 89bd
00000100: 4bf6 9b3e ec32 24bf cc95 153f c120 463f
00000110: 3c49 eebd 15c9 57be 6560 13bf b05c 973c
00000120: ec4d 07bf 9d7b 98be 0baa 9dbe a279 7e3e
00000130: bed8 9e3e df3e e53d 38eb e13d 8c48 e9be
00000140: 584d a6bf ac1f ffbe c200 a13f 8e89 583f
00000150: 8886 c23d 1962 07c0 c4dd 1f3e b03c 043f
00000160: ba36 923e 214e b8be 7f1e 13bf 8b02 01bc
00000170: 2ce0 38bf 9d52 5bbe 395d c03e 5102 633e
00000180: 4c29 d6be 9c82 60be 15da 41be e24b d0bd
00000190: f435 acbf e3ae 04bf e403 a73f 204b 5f3f
000001a0: 7e0e 63bd 4f56 dc3e 5c39 e1be 3229 edbe
000001b0: cd21 5bbe 19e6 503f 84d5 3b3c c3d2 0abd
000001c0: 4792 e2bd 3c4c c8be 7f24 d23e 84d2 39bf
000001d0: 5345 82be fa7e 813e af1e 4cbe fcdf 4abd
000001e0: c02e 013f fc46 debe 86ea a2be b486 21bc
000001f0: bc01 653d 0841 8abe 588a 47be aa5e 39be
00000200: 6825 e3be 314c 3d3e 7826 c6bd c125 97be
00000210: a689 8bbe 6368 4d3f 58c0 cf3c 23a4 94bd
00000220: cff9 4540 86f0 74bf 9ed5 1f3f e8d3 3b3f
00000230: 90c3 3d3e c1d0 91bf 18f9 53bf 8a30 9dbf
00000240: a46a 6ebe dc95 923e 0bb8 373e 8e23 02bf
00000250: 853f 7fbf 86f0 f7be 801d 39be 9b0c e4bc
00000260: 1dd4 193f 42db 42bf 50ec 483e b007 803e
00000270: 00d2 94bf 0660 a63f 417a 04bf 7743 1ebf
00000280: c65c 6abf 5218 743f afab 3d3f 9982 62be
00000290: 4b91 663e 960c f03e a041 fabe 337a 8cbd
000002a0: a9ab 78bf dc45 8dbf 14ca b03f 691a 7e3f
000002b0: fbaf 81bf f075 50c0 3481 65bf 9eac 9ebf
000002c0: 0675 a5bd 4b8b bdbe c83e 0d3f fa67 b4be
000002d0: 50f1 923f 43e2 fd3e 4ce5 b73e 917d 283e
000002e0: 2e8a 4abf fe0c a63e 3440 3a3e e632 073e
000002f0: 373b d0be e35a 88bd 6b9b 11bf a79a dfbe
00000300: df47 773e c2f4 72bf bbe6 023b 5311 313d
00000310: b6ca b3bd 638a 0940 b0a0 143e ce9e f03e
00000320: 69c2 75be fe87 86bf 457f 87be 7541 afbe
00000330: 9df0 f4be 1404 2fbe 1868 06bf 2849 d6be
00000340: 3957 83bc 2cb1 a0c0 5731 a93e 029f 833f
00000350: c7b4 8e3e d76b d8bf a675 e33e f553 703f
00000360: 4856 0abf c115 cb3e 26d4 c7be 83f0 393e
00000370: 44c7 363e a770 36bf 977e d13d 01ec 353e
00000380: e44e 1ebf 7a04 85be 591a 1d3f 57af 7f3d
00000390: 6f3c 0a3e 6508 24bd b7ff 6f3c 50b9 04bf
000003a0: 2408 cf3e 8725 9dbe 1c44 49bf dc58 5abd
000003b0: 6557 5a3f cecd 403f daf6 8a3e daa8 313e
000003c0: 4aa8 b4be 7af2 bcbe fb06 30be 9cae f6be
000003d0: bde2 973e 92f4 113e 4974 3dbe fbb9 e2bd
000003e0: 242e aabe ff28 7abe 9966 84be 44f4 0d3e
000003f0: 35fd bfbe 8eea 45be 2e09 89be 326e 3b3e
-0.38975608 0.28442112 0.12710835 -0.53725064 0.43526188 -3.3469963 0.28023145 0.7810817
0.12774622 -0.09159078 -0.16131563 -0.15924735 0.17175096 -0.65922064 -0.11437528 -0.113099456
-0.5376373 -0.11263254 0.2115675 -0.39813432 0.373594 0.3269599 -0.30427706 0.22823872
-0.65008336 -0.2563445 -0.32945302 0.1812403 0.20919631 -0.10979404 -0.5702544 -0.28255925
1.632766 0.38783008 0.4776594 0.16220497 -0.13887633 -0.30407745 -0.5296055 0.21950898
0.41338715 -0.5290047 0.24976815 0.02188434 -0.30081952 -0.013538192 -0.20627482 -0.07778372
-0.38083974 -0.20518641 -0.19051026 -0.47074726 0.5156129 -0.20250235 -0.11452954 -0.23112072
-0.4162931 0.6507267 -0.7896023 -0.27527353 -0.06950436 0.2569573 -0.07463861 -0.067186534
0.30461344 -0.641402 0.58431697 0.7739373 -0.11635062 -0.210728 -0.5756896 0.018476814
-0.52853274 -0.2978181 -0.30793795 0.24851087 0.31024736 0.11193632 0.110311925 -0.4556316
-1.2992353 -0.4982885 1.2578356 0.8458489 0.09498316 -2.1153624 0.1561194 0.516551
0.28557378 -0.35997108 -0.5746841 -0.007874141 -0.7221706 -0.21418233 0.37571123 0.22168852
-0.41828382 -0.21924824 -0.18930848 -0.101707235 -1.3453965 -0.51829356 1.3048062 0.87224007
-0.055433743 0.43034598 -0.43989074 -0.46320492 -0.21399613 0.816011 0.01146448 -0.033892404
-0.110630564 -0.39120662 0.4104347 -0.72586846 -0.25443515 0.25292188 -0.1993358 -0.049530014
0.5046196 -0.43413532 -0.31819552 -0.009858776 0.055909857 -0.2700274 -0.19486368 -0.18102518
-0.44364476 0.18486096 -0.09675306 -0.2952099 -0.27253455 0.80237406 0.025360271 -0.07257869
3.093372 -0.9567951 0.6243533 0.7337022 0.18531632 -1.1391832 -0.8280196 -1.2280438
-0.23282868 0.2862996 0.179413 -0.508355 -0.997063 -0.48425692 -0.1807766 -0.027838042
0.60089284 -0.7611581 0.19621396 0.25005865 -1.1626587 1.2998054 -0.51749045 -0.61821693
-0.9154781 0.9534961 0.74090093 -0.22120132 0.22516362 0.46884602 -0.48878193 -0.06859245
-0.9713693 -1.1036944 1.3811669 0.9925905 -1.013183 -3.2571983 -0.89650273 -1.2396429
-0.08078961 -0.37020335 0.5517392 -0.35235578 1.1479893 0.49586686 0.35917127 0.1645415
-0.79117095 0.32431787 0.18188554 0.1320301 -0.40670177 -0.0665796 -0.56877774 -0.43672678
0.2414851 -0.9490472 0.0019973952 0.043229412 -0.087788984 2.1490715 0.14514422 0.46996158
-0.23999943 -1.0510252 -0.26464286 -0.34229627 -0.47839823 -0.170914 -0.52502584 -0.4185269
-0.016032802 -5.0216274 0.33045456 1.02829 0.27872297 -1.690791 0.44425696 0.9387811
-0.54037905 0.39665034 -0.39029044 0.18158154 0.17849451 -0.71265644 0.10229223 0.1776581
-0.6183913 -0.25979978 0.6136833 0.062423076 0.13499616 -0.04004707 0.0146483695 -0.51845264
0.40435898 -0.30692694 -0.7861955 -0.0533074 0.85289603 0.75314033 0.27141458 0.17349568
-0.35284644 -0.36903745 -0.17190163 -0.4818009 0.29665175 0.14253452 -0.1850139 -0.11070629
-0.33238328 -0.24429701 -0.25859526 0.13862711 -0.3749787 -0.19327757 -0.26764816 0.18303755

FC1.bias f4 [256]
00000000: d38e ccbe 0506 c8bf d8a2 8dbe 1eea 95be
00000010: c292 a43e 077f 9fbe c470 913e 92dc 3a3e
00000020: 19b1 89bf c02d b0be 4700 813e 01b1 f4be
00000030: b19e 1f3e 16e5 b83e d3fc ca3e a774 003e
00000040: baf6 d7be 8639 d6bb d85e 15bf 6a91 fbbe
00000050: 5be7 67c0 8de9 b8bf 5bf6 a4be d1d1 03bf
00000060: e52b 39bd ba59 73c0 cd48 2f3f c4bf b2bd
00000070: e16d 5abe a495 12be 0182 07be 60cf 72bc
00000080: adc0 183e 3372 13bf 67b6 9dbf 3bb3 353e
00000090: 9a3b 89be fa8c c73e 0158 a8bf 45ee 483f
000000a0: 16a7 56bf 6fe2 483d 396c a6c0 45b5 4e3f
000000b0: cae0 ad3e 2938 43bf 0309 c4bc 286c ef3e
000000c0: 5b23 d63d c8f5 08bf 7e32 163f c0dd b0be
000000d0: f8b5 b43c 7cb1 18c0 c5d9 1f3e 2ae5 97ba
000000e0: 4e57 70bf 990a 90be ecbe d73e 6919 0d3d
000000f0: c6e0 fbbe c95a a8be 92ca e33e 1854 fa3c
00000100: c8d1 9abe 1aee d93e 1c98 143f 9114 76bf
00000110: d784 31be 809b f13d e0d9 3340 fa00 863d
00000120: 9654 9bbd 6267 b4c0 ef37 7ebe b41e dcbe
00000130: 1a3f 2dbf 19ec b3bf 13c9 1ac0 5db7 a93e
00000140: bd4e 1b3e 7086 9b3e 7a25 07bf 70e2 c13f
00000150: fbe5 7cbe a7d2 c2be fe72 66be 6978 0fbe
00000160: 5f8e 0e3d 608c 2dbf 5014 21be 534f 9ac0
00000170: 484b acbd 50e5 df3c eeaf 5fbe c5c6 05bf
00000180: ef1f f9bd a02c cb3e bc6d 87be d613 e9be
00000190: af2b 8abf 53d4 2fbf a51f adbd b1df d33e
000001a0: c572 913d 2af8 813e 5bae cbbf 375b 4c3d
000001b0: 7049 633f 07f5 823e 679c 243e 2a58 e3be
000001c0: 460c 933e aa3c 2dbf 6f63 b73d 05a1 823d
000001d0: 9b8d 45be d29e aa3d 6fd1 d53d 8c80 63be
000001e0: 9346 ab3e 6c0c 40bf e462 b3be d14e a1bd
000001f0: 74b0 d53e 7e1f 333f b0f4 d1be b641 3b3d
00000200: 0d43 52be 803a 393e 9367 0dbe 4b26 943d
00000210: 25f5 c3bf 63a6 b0be 0017 aebd 200f e1be
00000220: a793 d13c 94bf 81bf e7a6 d6be 61e1 cdbc
00000230: c68d 003f d0ef 09be 1966 273f 70fa 9a3f
00000240: 8ab7 803d 6dea 843d 707a 6f3e 7833 90be
00000250: cd22 0abe d519 5cbe aef8 cf3e 8e2b f83e
00000260: d533 49be d8dc 3f3d cbec f7be c5ff 003f
00000270: 1b06 933e aaa2 c33d 4e54 e9be 2165 4abe
00000280: 5596 263f d30b 583e f486 68be a239 f93e
00000290: 3527 443d c7ea 033e e337 4b3d 0a4c ae3d
000002a0: d42b 85bd e185 5abe 4065 8fbe f7b5 253d
000002b0: 5b34 1abe ac9d 0cbf 18b8 ba3e 4c15 6e3d
000002c0: a97e c23f 3bb2 223f 4f8d c63e 961d ef3d
000002d0: 5d79 043e a0e3 aabe f068 223e 0f38 d93e
000002e0: 70c0 413d 7ba1 933e c090 5c3e 40e9 e5be
000002f0: ac32 7e40 56a6 05bf 0eee 963d 8ea0 81be
00000300: 72fa 8cbc 6a42 1dbf 7866 e83f e896 e3be
00000310: e4cc aa3d 337f a13e 16cc b03e 0681 8ebe
00000320: 3187 b9be e8be 7e3d 6302 40be 8864 f1be
00000330: 7af3 0a3f ef68 33bf 8d5a 04be e8d5 04bf
00000340: a8a6 1cbe 213e 1e3e 1798 023f 0b44 f9bf
00000350: 2a9b 90be f70b d03e d5fe 563f 3994 623e
00000360: b7c7 5c3e f793 31c0 0a93 e5be 78d4 de3d
00000370: ce6e af3e 77a4 19be 05cf 8f3e bcf2 f03f
00000380: 148f fdbe 8b7d a13e 2ca3 b5be 12c8 763e
00000390: 66ef d63d 4b3d 4840 df07 dc3e 79e7 58bf
000003a0: 6644 2cbf 7513 d6be 298d fabd acb3 80c0
000003b0: 651d 97bc 776a 643f 06ea 6dbe 5c3d c2be
000003c0: 0a01 8abe 0c04 eabe ab49 01bf b338 b2be
000003d0: e348 0f3e 2c9a 783e 4f78 37bf 783a 833e
000003e0: a8c3 81bf 1efc 80be 8d05 b6be b53b be3e
000003f0: 6fb1 dfbe a5cc 37c0 6f76 873d 62cd d73d
-0.39952716 -1.5626837 -0.27663302 -0.2928018 0.32143217 -0.31151602 0.28406346 0.18248203
-1.0757171 -0.34409904 0.25195524 -0.47791293 0.1558788 0.3611228 0.39646015 0.125445
-0.42180425 -0.006537619 -0.58347845 -0.4913438 -3.6234958 -1.4446274 -0.32219204 -0.5149203
-0.045207877 -3.8023515 0.6847046 -0.08727983 -0.21330978 -0.14314896 -0.13233186 -0.01481995
0.1491725 -0.5759613 -1.232129 0.17744152 -0.26803285 0.38974744 -1.3151857 0.7848857
-0.838487 0.04904407 -5.200711 0.80745345 0.33960563 -0.7625757 -0.023930078 0.46762204
0.10455962 -0.5350003 0.58670795 -0.34544182 0.022059426 -2.3858328 0.15610416 -0.0011588682
-0.93883216 -0.28133085 0.4213785 0.03444806 -0.49194926 -0.32881764 0.44490486 0.030557677
-0.30238175 0.4256447 0.580446 -0.9612513 -0.1733583 0.117972374 2.810173 0.06543155
-0.07584493 -5.63762 -0.24826024 -0.42992175 -0.6767441 -1.4056426 -2.4185226 0.33147708
0.15166755 0.30376005 -0.5279156 1.5147228 -0.24697106 -0.3805134 -0.22504804 -0.14010777
0.034803744 -0.6779232 -0.15730405 -4.822183 -0.08412796 0.027331024 -0.21844456 -0.52256423
-0.12164294 0.39682484 -0.26450908 -0.45522946 -1.0794581 -0.68683356 -0.08453301 0.413816
0.07101969 0.25384647 -1.5912584 0.049891677 0.8878393 0.25577566 0.16075288 -0.444032
0.287203 -0.6767069 0.08954512 0.06378368 -0.192923 0.08331074 0.10440337 -0.22217005
0.3345228 -0.75018954 -0.35036385 -0.07876361 0.41736186 0.6996993 -0.41006994 0.045716964
-0.2053339 0.18088722 -0.13809042 0.07233866 -1.5309187 -0.34501943 -0.08500481 -0.43956852
0.025583101 -1.013659 -0.4192421 -0.025131883 0.5021633 -0.13470387 0.65390164 1.2107677
0.06285007 0.06490026 0.2338655 -0.28164268 -0.13489838 -0.21494229 0.40619415 0.4847073
-0.19648679 0.046841472 -0.48422846 0.50390273 0.28715596 0.0955251 -0.45572132 -0.1976514
0.6507314 0.2109826 -0.2270773 0.48676783 0.047888953 0.12882529 0.049613845 0.08510597
-0.065025 -0.21340133 -0.28006935 0.04045674 -0.15059035 -0.5492809 0.36468577 0.05812578
1.5194904 0.6355321 0.38779685 0.11675565 0.12936921 -0.3337679 0.15860343 0.42425582
0.047302663 0.28834137 0.21539593 -0.44904518 3.9718428 -0.52206933 0.07369624 -0.25317806
-0.017209265 -0.61429465 1.8156271 -0.4445107 0.08339861 0.31542358 0.34530705 -0.27832812
-0.36235955 0.06219378 -0.1875091 -0.47147012 0.54277766 -0.7008199 -0.12925167 -0.51888895
-0.1529795 0.15453388 0.5101332 -1.947389 -0.2824338 0.40634128 0.8398259 0.22126855
0.2156056 -2.774656 -0.44838744 0.10880369 0.34264225 -0.15004145 0.2808763 1.8824077
-0.49523222 0.31541094 -0.35476053 0.24099758 0.104948804 3.128741 0.42974755 -0.847282
-0.6729187 -0.4181172 -0.122339554 -4.0219326 -0.018446634 0.8922495 -0.23233804 -0.37937438
-0.26953918 -0.45706213 -0.50503033 -0.34808883 0.13992648 0.24277562 -0.7166795 0.25630546
-1.0137835 -0.2519235 -0.3555111 0.37154928 -0.4369006 -2.8718655 0.06614386 0.105372205

FC2.weight f4 [1, 512]
00000000: 758c a23c ecae a0bf fa4b ee3d a25c f1be
00000010: 1160 0c3c aee1 a3be bf26 813e 3f2d 2abe
00000020: a8fa 783e f714 a8bd 06aa c4be b362 133e
00000030: 31f5 22be d08e b3be 1ac3 03bf 20aa 173e
00000040: 7360 763c c2fb 4abe 2b83 623e 2b61 b2bd
00000050: b320 9abf be12 62bf c36a 99be 3859 ab3e
00000060: 41db 013c 3bab adbf 3016 e0bd 76a9 20bf
00000070: c596 b53c 2809 813e 8cab cebe 4867 963e
00000080: 0634 3c3e a35f 1dbf 178e c8bf eb29 d6bc
00000090: cf57 50bc 276f 0b3f fa76 03bf 0ae9 5c3f
000000a0: d441 93be f878 0a3e 740a 05c0 4d72 d5bf
000000b0: 3e13 3cbd 69f8 c03d 6b41 dc3e 540f 2bbf
000000c0: 7ebc 1e3f f2e3 453f 2998 713f 2304 c9be
000000d0: ac8e 15c0 2a93 b1bf 0a36 433e 49c6 edbe
000000e0: 82e2 39bc d46a 4e3d 0ee1 35be 5654 653d
000000f0: bd20 75bd b92e bd3d e2a9 643e a4be 013e
00000100: fd1a 6e3c 0064 f4bc 1661 7140 fa30 143f
00000110: 707d 63bd bd89 fe3d 57f5 13c0 b77b 14be
00000120: 2d61 f2be db24 cd40 9caf c2bd bba4 d4bd
00000130: 1d93 c8be 11ab 773e 358f 883f 6a6d 56bf
00000140: 7458 643e 93d9 01bf e913 083f 1c88 c83f
00000150: 48a0 51bd b3d7 613d c857 9abe 9774 1cbf
00000160: 03cb 5cbe 6d70 92be c632 863e bda2 94c0
00000170: 7101 dabe ccb7 5fbe 6e8b 043e 01a4 18be
00000180: 0c4a b13e f1a7 493f da91 7f3e 3928 f83d
00000190: c8d3 0d3f 676e f13e 0435 743d 8832 1c3d
000001a0: 6cf3 8e3d 63ca b139 daed 0abf 6e2c 10bf
000001b0: 33f0 18bf a2ee 2f3d 0626 65be 66fa 093f
000001c0: 77ba 1bbe 0614 01be 03d5 7abc 62b1 37be
000001d0: 133e 57bd b4bb 1abd 60a8 eb3d f2d0 253e
000001e0: 194e aa3d a10a 153f 8614 1bbd c274 48be
000001f0: 58f6 04be ca20 b23e 2663 3fbd 070b 7fbe
00000200: 9542 70be 3984 083d 879e 5bbe 26cd 0abe
00000210: 1292 823f 7c75 4bbe e76d 16bd 7d32 0c3c
00000220: 2f3b 24be 12c5 8a3e b680 e13e 926e dabe
00000230: 762c 96c0 9b5c 963d 0ec7 37bf a6f7 e4be
00000240: ee1d 183d 81b7 c23d 2e8a b0bd 11d3 5a3e
00000250: a146 63be 768e a3bc 1186 6a3e f24c 20bf
00000260: f26d a8bd 2cc9 ff3d 3d35 d8bb da90 0d3f
00000270: b24f 54bf d460 17bf eb9b bbbe 50da 41bd
00000280: dd22 5340 34c3 61bd 7856 2dbf dec4 10bf
00000290: ebd6 32bf 6eb3 053e 7f15 b2be bd4e acbd
000002a0: ccd0 8f3e 17a2 db3e 0759 ee3e e7e1 483d
000002b0: 30d7 ea3d 3300 9a3e cd66 1b3f 60d0 44be
000002c0: 2976 743f 0ece 2b3f f73e a6be 8f23 8fbe
000002d0: 350f 533d d58f 28bf 7291 d73e 399d 0d3f
000002e0: b823 f9be e752 e6bd 6cc0 863e 4938 213d
000002f0: fc26 7940 9973 dbbe 794b 4b3d c643 003e
00000300: 783f 38be 4191 29bf 0ca5 f63f 016b b3be
00000310: d33b 92be f1df 94be d783 32be 668c 17bf
00000320: 7eda 3940 61ee 583e 6996 1b3e 3b44 353d
00000330: 52be 083f 7b84 4ebd 6b47 e53e 74b3 2ebf
00000340: 8877 2c3e b471 22bf 0ddd 3cbe ebcf b03f
00000350: 1fbd 90bc 9f96 b33a f82d 98bf df6e 0f3e
00000360: ce7f 26bf a318 4040 86ab 3e3e 859e 173d
00000370: b22f 88be 5e36 0dbf a5c6 71be 880e 2abf
00000380: c132 31bc 7102 a1be c87e fdbe 1890 8bbe
00000390: 0e54 f0be 5f96 d8bf 3edf a03e ffd5 15be
000003a0: 0487 793f ecc8 983d b3af 77bc 31e8 84c0
000003b0: 7905 773d 0e04 abbf 2ab0 12bf 9112 bdbd
000003c0: 4793 e1bd fa0b e9be cf47 fdbd d00a d4be
000003d0: 22ac 51be a48a 9ebe 3d2c d33d b8a2 c9bd
000003e0: 871a 77bd 33b0 413e a853 21be b44b 8b3d
000003f0: 38a9 16bd d384 0140 93bc 22be 9d20 0abf
0.019842366 -1.2553382 0.11635585 -0.47140986 0.008567826 -0.32008117 0.25224873 -0.16618823
0.24314368 -0.08207124 -0.38410968 0.1439312 -0.15913846 -0.35069895 -0.51469576 0.14810991
0.015037644 -0.198226 0.22120349 -0.087099396 -1.2041229 -0.8830985 -0.29964265 0.33466506
0.007925809 -1.356788 -0.10941732 -0.62758577 0.02216662 0.25202298 -0.40365255 0.29375672
0.1837922 -0.61474055 -1.5668362 -0.026143035 -0.012716248 0.5446648 -0.5135342 0.8629309
-0.2876116 0.13522708 -2.078763 -1.6675507 -0.04591679 0.094223805 0.4301866 -0.66820264
0.62006366 0.7730094 0.943728 -0.3926097 -2.336833 -1.3873036 0.19063583 -0.46440342
-0.011345508 0.050394848 -0.17761633 0.055988632 -0.059845675 0.09237427 0.2233043 0.1267038
0.014532802 -0.02983284 3.7715507 0.5788723 -0.05553955 0.12428615 -2.3118494 -0.14500318
-0.47339764 6.410749 -0.09506151 -0.10382982 -0.3917474 0.2418635 1.0668703 -0.837607
0.22299367 -0.50722617 0.5315538 1.5666537 -0.051178247 0.055137347 -0.30145097 -0.611154
-0.21561818 -0.286014 0.26210612 -4.6448655 -0.42579225 -0.21847457 0.12943813 -0.14906313
0.34626806 0.78771883 0.24957982 0.12117047 0.5540128 0.47154543 0.059620872 0.038134128
0.06980023 0.0003391086 -0.5426918 -0.56317794 -0.59741515 0.042952187 -0.22377786 0.538977
-0.1520785 -0.12605295 -0.015309575 -0.1793876 -0.052549433 -0.037776664 0.11506724 0.16192988
0.08315677 0.58219343 -0.03786137 -0.1957579 -0.12984598 0.3479064 -0.046725415 -0.2490655
-0.23462899 0.033329222 -0.21447192 -0.1355482 1.0200827 -0.19869035 -0.036725905 0.008556959
-0.16038202 0.27103478 0.4404351 -0.42662483 -4.6929274 0.07341882 -0.7178811 -0.4472019
0.03713792 0.09507657 -0.08620106 0.21369578 -0.22194912 -0.019965392 0.22902705 -0.6261741
-0.082240954 0.12489542 -0.0065981434 0.5529915 -0.82934105 -0.59132123 -0.36642393 -0.04732734
3.299003 -0.0551178 -0.67710066 -0.56550395 -0.6985919 0.13056728 -0.34782025 -0.08413456
0.28088987 0.42897102 0.46552297 0.049043562 0.11466825 0.30078277 0.60703737 -0.19220114
0.954928 0.6711129 -0.32469913 -0.27956817 0.051528174 -0.6584447 0.42103153 0.5531803
-0.48660064 -0.11246281 0.2631868 0.03936032 3.8930044 -0.42861632 0.049632523 0.12525854
-0.17992961 -0.66237265 1.9269118 -0.35042575 -0.28561267 -0.29077104 -0.17433105 -0.59198606
2.9039607 0.21184684 0.15194096 0.044254523 0.53415406 -0.050419312 0.4478105 -0.68242574
0.16842473 -0.6345475 -0.18443699 1.3813452 -0.017668305 0.0013701505 -1.1889029 0.14007138
-0.65038764 3.0015037 0.18620118 0.03701641 -0.2659889 -0.5516108 -0.23610933 -0.6642842
-0.010815323 -0.31447175 -0.4951079 -0.27258372 -0.4693913 -1.692089 0.3142032 -0.14632414
0.9747164 0.07460198 -0.015117574 -4.1533437 0.060307954 -1.3360612 -0.57300055 -0.09232057
-0.11014419 -0.4551695 -0.12367212 -0.414145 -0.2047582 -0.3096515 0.10311172 -0.09845489
-0.060328033 0.18914871 -0.15754569 0.068015486 -0.036782473 2.023732 -0.15892248 -0.53956014
